results/lenet5_weights_full.npz (npz, 665224 bytes, 10 tensors)

layer0_weights f8 [6, 1, 5, 5]
00000000: ffc8 094d b433 a4bf 809b 9b7c a5b4 913f
00000010: 58db 9b6e a4ab 413f 9012 a49c b9d7 5ebf
00000020: a6b1 b7ba 99a9 813f eceb f573 7cbf a93f
00000030: f2f8 ced5 5aba b63f c828 7314 5097 b63f
00000040: 5164 3bc4 a29c be3f 771d 45fb b748 b93f
00000050: 98a8 820e 04ff c03f 046e c453 3998 c63f
00000060: 6a5d acc8 a69a c43f e479 8bf5 dced c63f
00000070: aa56 cca9 911f c53f ca56 eb81 3783 ae3f
00000080: 2dad 9f40 f8b0 b13f 2c13 561f 16f9 b43f
00000090: 5188 7879 8701 ba3f e7a9 bcc8 ba02 bc3f
000000a0: 9410 adab 84d3 b2bf fdb0 b995 180b abbf
000000b0: 34e4 8675 abf8 aebf dfd5 d6b6 d003 9bbf
000000c0: 106a 8227 2191 81bf b21f 4d48 579f 993f
000000d0: 6f14 7299 5884 ac3f 7ead bcca 0f09 b03f
000000e0: 180c 6ce0 3f04 853f 5b32 66b1 e24d 95bf
000000f0: fb11 331a ded5 c03f 8776 19ac 236d c03f
00000100: 73f0 3aa9 5d28 c03f bcd9 1afb 477c b83f
00000110: 7611 1373 ec39 b73f 31a4 27ef 5ee8 c03f
00000120: fdf7 94af 32e8 c23f 9592 6fd3 b057 c13f
00000130: 298d 0c1a 01bb c33f eb80 a5aa e67b c43f
00000140: 5564 8798 648e a43f c061 a1ab e1e3 a23f
00000150: 916a 17d8 d3b7 b13f c321 81cd 9e40 b43f
00000160: d25d ce58 2051 c03f bf30 b227 4142 99bf
00000170: 4fd3 3638 dd59 9dbf 0e78 cc78 d679 a3bf
00000180: b0c7 0ca6 2521 9ebf f1fe d341 bffc 90bf
00000190: c2ac 1dab 806f a23f 6031 e63f b0e9 8d3f
000001a0: 72cc 875f 3e08 a7bf 7c03 206b 95fb babf
000001b0: 34f3 4a92 50a0 b3bf 8cf8 903c d0b2 92bf
000001c0: 50ff 2d50 3a8f b8bf 266e f783 6579 c6bf
000001d0: bfe7 e120 0a65 c8bf e383 6a4b 1b19 c1bf
000001e0: 30f2 1536 d217 a4bf c878 b8f2 5813 bfbf
000001f0: 7cce 0ae4 9806 c6bf 22d4 8f96 500d c5bf
00000200: 9636 1af9 2b29 b0bf c6ea 9916 1a21 a0bf
00000210: 2bcf 2526 f666 c1bf 1d24 da64 bfb1 c0bf
00000220: 2d20 faf8 4606 b1bf 2a2f 3025 e7e4 a83f
00000230: a7e9 8f7c efe9 9bbf 1042 5bec 938b b7bf
00000240: a54a bf22 940b a5bf 2176 76f5 6c29 b43f
00000250: 817c 4a8f 8758 be3f e6cd 8222 08a0 ad3f
00000260: e5b8 8475 7b1e b13f 0c39 295e 86f4 ab3f
00000270: e418 7beb cb7e b13f f36b 01ba 9576 b33f
00000280: cb81 1dbe 3cac c23f daa2 731a cfac c53f
00000290: 98b2 a067 7d31 c33f 08dd fc88 364e c73f
000002a0: e007 4012 abf1 c43f b380 ac12 33c1 c13f
000002b0: 3c36 4b82 f8a6 bb3f aff4 7776 149d b03f
000002c0: 823c d581 e510 c03f 00ce 7fe1 60a0 bd3f
000002d0: 7b4c 6c2a d40a 71bf d0ae 279e 7a32 70bf
000002e0: 78c1 1818 b4b1 b0bf d8d7 3f22 c0f6 a6bf
000002f0: a24e 7a37 5489 90bf 1ec8 8df6 b34e b0bf
00000300: 3f93 2a5d cc00 bebf 817c 826b aff7 c8bf
00000310: d7bd 9393 2402 cabf 7720 f131 fbb1 c8bf
00000320: 8231 1a50 5c92 76bf 18c0 ae8e f9de 963f
00000330: 82d1 2d89 00bd 863f 8b84 0284 0e2a 98bf
00000340: ccef 7e2b 1b8b b4bf 5693 1d1b b306 ae3f
00000350: 864e 2eb0 89c7 b63f dec9 1201 915f a53f
00000360: a2df 864d 8676 863f be02 98dd df95 a2bf
00000370: e42d 9d9d 99f4 c03f 3b6e 49a7 f6f6 c33f
00000380: f1e3 102c b305 be3f bc12 07bc 70c4 c13f
00000390: 645a 5bec 0a93 b63f b0a9 5c53 fc08 c33f
000003a0: be2b beb4 e4d2 c43f df3b ad4e 6078 c53f
000003b0: 7cce 5773 3330 c93f ab17 b2c8 264a c13f
000003c0: 5d6f 66ab 15ef b13f 31f5 e80b 4cc7 9b3f
000003d0: 6f21 a679 a663 9a3f e0b7 381c 332a ac3f
000003e0: d563 394e 43e2 b23f aa12 25dc 996e 7e3f
000003f0: 361e d66e 3971 87bf 7a0c f4d1 2e81 b1bf
00000400: 0eec d133 8822 bdbf 388d 90a5 6251 babf
00000410: 50d8 33eb 608f b2bf 96b9 ad48 14f5 bebf
00000420: 4ae5 7901 2068 c8bf 747d 93ed 5845 c8bf
00000430: 3685 c250 0d20 c0bf ad17 8a54 7d48 b1bf
00000440: e189 1506 65ca c2bf eb36 7a8f 9d84 c6bf
00000450: 6323 ae3e 0675 c4bf a3c2 df80 dc0d adbf
00000460: 2d21 f84d 7d2e b2bf 5a02 243f ca6f c1bf
00000470: cf9f f688 7be6 bbbf 4aee af2b 3a63 9bbf
00000480: f085 f1b1 42f8 b13f bd0d b2d1 0bf4 a3bf
00000490: 0460 2c58 1178 a7bf ba3b 4500 c6d2 873f
000004a0: 8db0 9a2d 60bb b73f ecb4 3d76 094e c53f
-0.03945697250755308 0.01729067395254047 0.0005392601862855657 -0.0018824875465394443 0.00862426854197269 0.05028904834303902 0.08878104896482222 0.08824635028136918
0.11957757273502635 0.09876584896584527 0.13278246601595778 0.17652050581169487 0.16096958921910282 0.17913400640004717 0.16502590933730704 0.059594854935921385
0.06910659387329039 0.08192575707478217 0.10158583369823872 0.10941665077977057 -0.0735400122767394 -0.05281903102590666 -0.060490949722812465 -0.026381741675967404
-0.008577593820793289 0.02502189997474575 0.05569722054591685 0.06263827037462552 0.010262011562650428 -0.020804922177875756 0.13152672080299496 0.12833066848081762
0.12623186839289566 0.09564638023844102 0.09072759446559595 0.13209139516337268 0.1477111203511753 0.1354886085893169 0.1541444184486889 0.1600311597094398
0.040148872012374305 0.036894848061538976 0.06921123529120111 0.07911102788160122 0.12747577987896236 -0.024666803405623435 -0.028663116985359335 -0.038038923498092556
-0.02942332101810735 -0.016589153664425763 0.03600694741074896 0.01460588164334159 -0.04498476902144767 -0.10540136208875411 -0.07666495868302264 -0.01826024408023179
-0.09593548257362028 -0.1755797285430713 -0.19058348279560097 -0.1335786932222894 -0.03924424085832745 -0.12138896871371962 -0.17207633147119228 -0.16446883536960494
-0.0631282313499589 -0.031502547511043796 -0.13595463621788303 -0.13042442726535422 -0.06650203302899689 0.04862139061887512 -0.02725958059088787 -0.0919735385935001
-0.04110396312866741 0.07875710480444599 0.11853835342707165 0.05786157056118295 0.06687137240507786 0.05459995173861118 0.06834101199192194 0.07602821150923926
0.14588126452419056 0.1693362120779714 0.14994781074473873 0.18207437218527667 0.16362512961501263 0.1387084809475759 0.10801652127266775 0.06489684955882312
0.12551564063548787 0.11572843079903095 -0.004160717747043847 -0.0039543905026950404 -0.06521154011057273 -0.04485130708773938 -0.016148868452161687 -0.06370091218357785
-0.11719968103950594 -0.1950587534856574 -0.2031903954116234 -0.19293155611581245 -0.005510674092544911 0.0223349564873275 0.011102680384035283 -0.023597933585396674
-0.08024759113226237 0.05864486413955798 0.08898220588008074 0.04174473894217433 0.010968255272800157 -0.0362997014999613 0.13246460147853079 0.15597422760298393
0.11727447343663734 0.13880738431011774 0.0881811930697523 0.14871172018440637 0.1626859552892181 0.16773609010348786 0.19678347713453437 0.13507542419045868
0.07005439219068195 0.027127445437362844 0.02577076070295575 0.05500945777417576 0.07376499805231103 0.007429696097749053 -0.011446427054365587 -0.06837742448628772
-0.1138081671251003 -0.10280434171777564 -0.07250028364418992 -0.12092711233501627 -0.19067764350965383 -0.1896163139381134 -0.1259781498274976 -0.06751235307646537
-0.14680159375264082 -0.17592210298283048 -0.1598213010841177 -0.05674637864274714 -0.07102187303110404 -0.13622406085052569 -0.10898563474495336 -0.026745709339577574
0.07019440502474317 -0.03897129950294296 -0.04583791924795835 0.011632487185719732 0.09270287621865432 0.16644399903763174

layer0_biases f8 [6, 1]
00000000: 43be 4ea2 e646 b8bf 8b75 836f 4a65 b0bf
00000010: a6b5 fe02 de70 b63f 5e7a aa60 301e bbbf
00000020: b82a d1f9 6ffd b1bf 3883 227e 9cf5 b13f
-0.09483186209285414 -0.06404557440278873 0.08765971730345842 -0.10592939720161484 -0.070273397913449 0.07015398101294756

layer3_weights f8 [16, 6, 5, 5]
00000000: c552 b01e 8ea4 adbf e134 ba33 0619 9a3f
00000010: d50d 96f2 956e b03f 5f14 5e58 e225 b33f
00000020: 7c01 8a30 252e b33f ccda d883 0247 9bbf
00000030: f537 c110 7544 ae3f b604 8bfa 4c71 b73f
00000040: 99ed 37a0 3c55 bd3f cadf e20e 78c1 bb3f
00000050: 606f 17fb abd8 bd3f 92b2 6444 649a c23f
00000060: 1e4d 20c6 2f7d bd3f eddf 5d37 3d94 b83f
00000070: f8bb 85b8 7ef0 b53f 2a7b 7185 1b9d b43f
00000080: 7da8 e7e6 6d39 b83f 4018 3170 15a2 b33f
00000090: 1646 130c 6253 a63f c929 c208 2606 7dbf
000000a0: 87ea b117 31c9 adbf f189 eb0c a392 a1bf
000000b0: c87b 20bf f34d 94bf 8c0b 326a ca7e 92bf
000000c0: 1321 7be2 68e3 a3bf ef70 23ff ab47 abbf
000000d0: 5af4 7c3c 1507 8cbf 6b1f 8ada 7273 aa3f
000000e0: 8eed 437e 10ac b23f b00f 84a6 9619 b63f
000000f0: 8691 9237 ddc7 88bf dd63 ae03 1712 9e3f
00000100: 7696 f78c 6f9e b23f d98b 0e45 1ccc b93f
00000110: c6bc 908c d19c b73f 0489 49fc 34ee b13f
00000120: 2655 ed27 f7a3 b73f d9d4 57f3 0cc6 bc3f
00000130: d0de 8a42 c2b1 b53f 868e 54e1 9d05 ba3f
00000140: 74ea 8f03 6556 a43f 8283 4e55 6cac b53f
00000150: 6722 edce b125 b33f 1004 2b01 0645 a13f
00000160: db2f 3a30 e2d5 713f 37a4 8f41 e1dc b0bf
00000170: 321e 08b9 55b7 8fbf 1b71 f703 4f68 783f
00000180: 3bc1 8985 c302 96bf ad17 ce2f f989 a3bf
00000190: 27ba 46d1 c748 853f e187 a0fb 3b99 7a3f
000001a0: 4f76 980b 7828 b7bf 1fa2 d665 01a1 a9bf
000001b0: 4665 e589 3ac4 babf 72fe 9806 cd9a ab3f
000001c0: 50f9 e701 50ae aabf 6d41 7010 82b4 c0bf
000001d0: a082 9cae 0115 aabf ba06 a100 2352 c3bf
000001e0: f2b3 e038 89d1 a5bf 4356 7ea8 2e5e b7bf
000001f0: 2c9d cc87 f983 b1bf 2610 f336 907d 94bf
00000200: 3799 35a1 229d c0bf 5959 4d95 d8d4 a6bf
00000210: a67a 8b29 049b b5bf dfce fd9a 931b abbf
00000220: 3c6e b9fc db37 9dbf 3fff dd28 c024 acbf
00000230: da8e da8c 9a94 933f 441f a13a 770b 783f
00000240: e8b2 d439 d5fa 583f 786b d110 751a 853f
00000250: ea4a 404c 047f 863f c7e1 ee00 92be 9e3f
00000260: 5966 db62 267b 94bf 600c dcf8 f516 8abf
00000270: a5e9 262c d84e aa3f 18c2 6fd6 2461 a23f
00000280: d081 2f28 c7f2 a3bf 3fd1 0c66 6ac6 8ebf
00000290: 1272 0444 d623 b23f e280 fa43 eafb bd3f
000002a0: 28ee f833 31cf c03f dd4b 88bc be35 b33f
000002b0: 64e1 ce5a c5f7 b83f d3d7 c6f1 44b6 b93f
000002c0: c48a fc23 b349 b83f 6255 b2bd 655c bd3f
000002d0: ce2a 5a1c bdc2 c13f a5e8 a486 5e47 c33f
000002e0: d83b 5dbc 337d bf3f c170 8ece 2342 ad3f
000002f0: 46e4 f735 6a80 a63f e144 27d4 a7af a6bf
00000300: 16cd 65ff 959c 8b3f b120 ef0a 3dac 803f
00000310: c873 f5eb 1d4a 723f 271f b9d2 f920 8abf
00000320: cb9f 8371 d006 a7bf 936e d73e 3817 8dbf
00000330: 3836 335b 054f a63f 3e11 4f53 c8db b73f
00000340: f0b8 5c7e 99a0 c03f 783c b309 6564 9f3f
00000350: 7247 c021 3c9c a13f 50ab 4d2a da00 b83f
00000360: 681e 9b89 2d47 b13f 2a36 f82c cca9 bb3f
00000370: b38f 5d04 42b9 b83f 3455 d4dc fe25 b93f
00000380: 899f b367 09d1 be3f 7e19 df8a d839 b33f
00000390: 642b ca55 f28b b43f 58cf 6d47 a126 46bf
000003a0: e4c8 1a58 02d1 483f ee0f cbf8 4c11 9f3f
000003b0: e03b a629 fe02 853f 9ce1 55dc 0a40 74bf
000003c0: 6d0f 152c faa3 b5bf 6cf4 3ed8 b668 aabf
000003d0: ff2c 5a0c 12c6 98bf 9c17 e58a 844d a2bf
000003e0: c0c0 c9bb ab97 6bbf 5ebf 8801 27d7 863f
000003f0: 9550 e79d 995e 883f 98d5 10d6 c418 b1bf
00000400: ecf1 2c3b f886 a5bf e83d 4e25 24bf bbbf
00000410: 594f 4376 eebc b13f 1264 6200 1b6f 28bf
00000420: b436 b247 77b3 c1bf b782 3e4a d850 b3bf
00000430: 5e14 5a14 59fb c0bf c6aa 6f82 3123 a1bf
00000440: 207b 73fd ea95 b1bf 3821 7853 e8c7 b8bf
00000450: 4478 eaa7 37e0 9bbf dae6 4575 f8fb c4bf
00000460: 02f6 c2a1 cb54 a2bf 2e0b e064 a87b b6bf
00000470: 2b72 032f 63b4 b2bf d078 0f5c b2e6 aabf
00000480: 479e 5705 ffa3 b1bf a266 7e6d 7785 a33f
00000490: 64c9 22a8 c4e4 9a3f 0787 00aa 1b4a 77bf
000004a0: 2745 e3f6 caf1 7c3f 125c 7d93 d44c 81bf
000004b0: 465d 06db 076b a1bf 803e 1807 e0cb 623f
000004c0: bcee b3ca 7c96 9bbf b4e0 80bb f3a9 a0bf
000004d0: a289 1ef4 d3c6 90bf 453e 79a2 b8e5 833f
000004e0: 57e3 e4e6 9699 4e3f 6043 ddce aa27 96bf
000004f0: 5c8d 5b51 69e8 b3bf 0484 fbca 29b0 a4bf
00000500: 7755 56b9 da81 963f b8ef d7da 3c16 973f
00000510: 90bc 6d3b 25ad 86bf 253d 5cb9 d91b b9bf
00000520: acff ca2e d8ba b5bf 709e 9b42 fa3a 8cbf
00000530: 9271 8bbd 24d0 973f 980b b37b 66a7 963f
00000540: 9576 6208 05cf a8bf c3f4 d77c c8b7 b2bf
00000550: ada1 db88 9cc9 97bf e9a6 50bc b8b7 943f
00000560: 59cf 710a 4eba aa3f 39f6 902d d82f 9f3f
00000570: 06e0 2f8b b0c3 573f 7904 5597 50f1 a2bf
00000580: af8a 21e2 f211 69bf 436d 6a92 4782 70bf
00000590: 2b41 4985 4f78 9dbf 329f 0182 26ea 473f
000005a0: 64af b3ae 39bf 80bf e895 190d ee46 963f
000005b0: ac20 8aee 9c4a a1bf d763 ea6a b662 b1bf
000005c0: d9e4 2cc7 5b14 a7bf 0aa9 179b b632 62bf
000005d0: b975 2506 49bf a33f 2cf3 0736 e2fd 72bf
000005e0: 7484 1b3b af08 aabf d14a 87b7 022a b6bf
000005f0: 33a9 189e 9042 a8bf fdf6 5b75 94fe 933f
00000600: 57fd 9e08 cee4 a53f fe2b 75da 95ee a0bf
00000610: 2600 90cd 4bc2 aebf 9d7a 5f34 bc21 b4bf
00000620: f71c cd1b bd4a 923f f228 bde5 5d26 a93f
00000630: 4832 314b c241 9e3f 1d93 ef0a 6774 933f
00000640: 2cea 6d5e e018 79bf f1a2 dc3d 8c90 a5bf
00000650: 5f95 71a0 df40 84bf 18f9 b067 5ada 883f
00000660: bfbd 4058 e142 793f 6000 4f94 eba2 b1bf
00000670: d546 2f3c 12d8 b4bf 5d5c da14 3fbb 9dbf
00000680: 273a d727 35d2 a73f 0f48 0e59 afe7 973f
00000690: 620b 5d5e ff86 b1bf deb0 4efc f152 b8bf
000006a0: b99b 84ff 7261 b1bf 5e5a a3db 050e 9c3f
000006b0: 8cf1 a3a5 a21c a93f 7643 6ca1 bc76 96bf
000006c0: 9ef5 4cc5 df55 b5bf 7a37 6684 e730 b6bf
000006d0: 7c54 66ff 25ab 703f 2042 1a34 6444 b43f
000006e0: bcdd 7148 9b53 7e3f b426 51b1 bebf 9abf
000006f0: c78a e7e1 103c b8bf 15a7 8a1b 57e2 afbf
00000700: 6626 ead3 e7ad a8bf e876 43ec cccf b6bf
00000710: f69c ff25 d227 99bf d0df 0d75 9ea7 1bbf
00000720: 3301 f2d5 c2e4 7d3f 10ce 47cb c1fa 83bf
00000730: 9d2b b57b 7cda 8dbf 37b9 8617 3f23 9cbf
00000740: 9414 7162 a0fe 97bf 56e7 c9fe 43ef b0bf
00000750: 216e 20b2 d8d6 8dbf 29d8 35a2 8e4e 78bf
00000760: 4b24 07f7 5047 85bf 450f ce67 9f79 a9bf
00000770: 704f aab5 61c9 a8bf 2bc5 7045 e7f6 aebf
00000780: 8b87 7332 573a 763f a569 a608 92fa 843f
00000790: 94c4 fb99 112c 87bf 14d5 8e04 e0b4 b4bf
000007a0: f83e 65d9 54ae b8bf 8b49 1468 3538 a3bf
000007b0: b3b3 c178 a144 963f 3dc1 a22a cba3 b43f
000007c0: f4c5 7f67 b1d5 a83f 238b 4ec4 077f 8a3f
000007d0: d9ac 9fc3 b78e a1bf 6577 6730 866e 6b3f
000007e0: 5c37 1ea9 ad78 8cbf ca95 649b 6c6e aebf
000007f0: bea8 8c97 5dce 8ebf 4472 23f6 1047 8bbf
-0.05789608120554627 0.025486084849536964 0.06418740437043564 0.07479681641969325 0.07492287097011813 -0.026638068482692387 0.05911603765035515 0.09157258145116284
0.11458186065276833 0.10842085231240542 0.11658739929356221 0.14533665980834037 0.11519144618096219 0.09601194955564525 0.08570091252271073 0.08052227027790751
0.09462630164458292 0.07669195164734877 0.0436049117794363 -0.007085941859382002 -0.058175596373037534 -0.03432187588420622 -0.019828613796672362 -0.018061793071420904
-0.03884437336597748 -0.05328118791087088 -0.013685384663057732 0.05166205327719705 0.07293799479150762 0.08632794919327469 -0.012099960573615186 0.029365882491763407
0.07273003760891492 0.10077072797734789 0.09223661119243606 0.07004099997860541 0.09234566426069488 0.11239701214784094 0.08474363445827326 0.10164820433834096
0.039721638378939966 0.08466221888239825 0.0747939233962228 0.03372973217256725 0.004354365871801459 -0.06587035990345745 -0.015486402234286965 0.005958851484561013
-0.02149491789390477 -0.03816202839429592 0.0103927241078426 0.006493791874193606 -0.09046125681967364 -0.05005649917740506 -0.10455671183207924 0.05391541200196749
-0.052111149056133343 -0.1305086689249139 -0.05094151741491726 -0.15094411402428937 -0.04261425799663944 -0.0912808572159856 -0.06842002454196877 -0.020010236123894874
-0.12979538795043208 -0.044592636323317954 -0.08439661039617849 -0.05294476763711286 -0.028533398914403416 -0.05496788500658888 0.01912156567290322 0.005870309580195802
0.0015246469768712082 0.010304369521852527 0.010984452797889916 0.030023843104318517 -0.02000102976203375 -0.012739106804934675 0.05138278521504284 0.035897399116837814
-0.03896162381693424 -0.015026885260888021 0.07085932884769644 0.11712516936904963 0.13132300412859021 0.07503883459894163 0.09753068415637284 0.10043745901825156
0.09487456921173548 0.11469112283005736 0.13875545391450433 0.15061551641867257 0.12300418232665267 0.05714523216667678 0.04394847782891324 -0.04430889572871322
0.013482257706277905 0.008141018768484139 0.004465214616485143 -0.01275820898366893 -0.04497386346503126 -0.014204444329997378 0.0435716317966634 0.09319736513049734
0.12990111036328456 0.030656412808465622 0.034395102615362286 0.09376300366208778 0.06749233827133028 0.10805965516939212 0.09657681089953378 0.09823601619094263
0.12037714750078811 0.0751014079133707 0.08026041597819994 -0.0006759917731486804 0.0007573377081000724 0.03033943432343727 0.010259614606892897 -0.004943888115456121
-0.08453334404208386 -0.05158015622826259 -0.024193078998490766 -0.03574766345495492 -0.0033682207270474274 0.011152558073348192 0.011899185305914531 -0.06678419328894447
-0.04204536173208226 -0.10838533316404375 0.06928911578444054 -0.00018641666992350085 -0.13828936577595174 -0.07545234501459218 -0.13267053121322453 -0.033471629307162895
-0.0686938160683721 -0.0968003467352262 -0.02722250902535729 -0.16393953062270478 -0.0358031878435945 -0.08782436812184066 -0.0730649938372571 -0.052541326272817934
-0.0689086330454468 0.038127643695770944 0.026263306390953103 -0.005685909331107692 0.007066529111584153 -0.008447323561695117 -0.034019704328950115 0.0022944808522494253
-0.026941251632691218 -0.032546631468393455 -0.016383468413218367 0.009715502222348191 0.0009338366342382759 -0.0216356934318499 -0.07776506649274978 -0.040406518962988996
0.021979730188453197 0.022545767647883713 -0.01107243621456025 -0.09808121467016358 -0.08488227026373235 -0.013784365804396986 0.023254942006006703 0.022122956562053625
-0.04845443465567915 -0.07311680839480332 -0.02323002419771718 0.020232092374647435 0.05220264317986673 0.030455949574607486 0.0014504646358073372 -0.03699733588519733
-0.003060316449635301 -0.00403049428737329 -0.028779261121884375 0.000729817202238947 -0.008177233356455545 0.021754951047474963 -0.03377237712726475 -0.06791248426669881
-0.04507719808902672 -0.002221447612773213 0.03856876564052975 -0.004636653553913555 -0.0508475074436853 -0.08657853108096993 -0.04738284997832167 0.01952583280853214
0.04276126723515954 -0.03307026187629701 -0.060076111643866434 -0.07863975790631135 0.01786323053536606 0.04912084035329824 0.02954772552429777 0.018998727838965047
-0.006127239647748566 -0.04211843733930277 -0.009889361461498934 0.012135225572020888 0.006167297604448617 -0.06889221545043389 -0.08142198533394247 -0.029034600875629802
0.04652563201272058 0.023344745455297352 -0.06846614888949668 -0.09501564416740702 -0.06789320696098756 0.02739724305214463 0.0490465953061828 -0.021937320091697875
-0.08334158484372842 -0.08668372137455363 0.004069469860401683 0.0791685702518028 0.007403952192468418 -0.02612207371956883 -0.09466653361554754 -0.06227371417237585
-0.0482017942604898 -0.08910828369286217 -0.024565967149013233 -0.00010549454351671474 0.007298241688772844 -0.00975562478649919 -0.014576885724314976 -0.027478204546860865
-0.023432260521322038 -0.06615090341975124 -0.014569943366999518 -0.0059342929483730345 -0.01038993123883549 -0.04975603239202412 -0.048411420274674266 -0.06047747347509821
0.00542673169477038 0.01024355019471985 -0.011314523231222652 -0.08088493453290752 -0.09641008670336848 -0.0375382127332556 0.021746180529976743 0.0806242922869886
0.04850534809510157 0.012937603643711498 -0.03429197562203407 0.0033486004715389977 -0.013902050708363305 -0.05943622013937107 -0.015042048633024382 -0.013319141875791314

layer3_biases f8 [16, 1]
00000000: b542 ee36 8e47 b1bf 4de0 f916 03e7 a4bf
00000010: c8d0 d413 2c4f c6bf ba4c 11d1 af61 b2bf
00000020: d567 2430 112b b3bf 14c5 9da2 1418 99bf
00000030: 3a02 c3db 62a8 b8bf 79a6 8e6c c3a7 9bbf
00000040: 7615 f36a 3cef b6bf 81bf 0008 f09d b1bf
00000050: eaa2 1f55 a93c abbf 4c64 7387 eddd a5bf
00000060: d919 c58d 5697 a5bf 4ea1 956d c14d b6bf
00000070: 9708 e6bf a801 c4bf df8a 2dcb 9202 b4bf
-0.06749810067254709 -0.04082498221845352 -0.17429114311528893 -0.07180308202923671 -0.07487590241763027 -0.024505922723112653 -0.09631936898495833 -0.027007153988654473
-0.08958795176575571 -0.0688161868608841 -0.05319718517404744 -0.04270880011035469 -0.04217024307813561 -0.08712395596888209 -0.156300634098504 -0.0781642671623035

layer7_weights f8 [576, 120]
00000000: dca1 5198 365f 793f 175e 5f0f 3379 86bf
00000010: 3f15 9e2a d724 4fbf 6a39 2f8a b160 743f
00000020: 90f7 087d 40d3 863f 9d33 0b1d 8bc4 adbf
00000030: 5fe1 1bc6 ca02 72bf 25f1 b4f4 e8e6 aabf
00000040: 8c83 d7c5 75ed 8e3f 1018 52e8 d2cf a23f
00000050: 419e 107f 0bbd 913f 04f0 ac94 9f98 96bf
00000060: b47c 15f7 aee6 ac3f 50c6 0361 6190 9cbf
00000070: 3935 20b1 056e 6d3f 75b8 6acf ab23 7e3f
00000080: 2a80 46a5 611e 70bf 0046 eb06 8efe a9bf
00000090: 3e5d 419b 5306 a43f 9d6d ea4a f150 a33f
000000a0: 7217 b1dd d04a a1bf 14d8 1fb4 91ea a83f
000000b0: 77dd 52d8 6f02 ae3f d8bf 790b 1b7e a73f
000000c0: 55f4 2c1f 7d64 a53f e4f7 2736 9a3c ac3f
000000d0: 9689 4ef7 e737 a33f 8a3e 9557 c19b 8cbf
000000e0: 59b4 b1fe 223b a73f 759c b5f4 bf76 923f
000000f0: 7a92 6ac7 ef92 a93f 6845 f293 c2a4 a63f
00000100: 75ad 4aab e04d a8bf f50b 3ef3 8957 8ebf
00000110: 78e1 0eca ead4 9cbf 03db b695 c27d 9a3f
00000120: 6970 540a f730 8c3f d9fa 0b4d 0992 a63f
00000130: ecbc 4fd9 0c1f ab3f b22b 4f1d e272 933f
00000140: 65e3 3fa2 acde 993f 5861 7ed2 caa1 97bf
00000150: 485d c160 a7c5 723f b930 07d4 830d b1bf
00000160: 0eeb 1e18 5010 a9bf 3e80 c18c 9f17 7dbf
00000170: f492 33a4 7028 933f 66fb 9e91 d05c a83f
00000180: f17b f3d7 6ace a33f 6eb9 49e3 2b8c a03f
00000190: 65b8 372e bb24 9abf 0cb1 8834 78bc 6f3f
000001a0: f829 17bf 2a37 84bf ea2f 5a95 ff48 89bf
000001b0: a905 b4ff bb7e 87bf 71b2 5b7a 9af5 92bf
000001c0: 6c50 3090 e2ca 9e3f 2fff 4d94 2378 923f
000001d0: 7a6e e094 483a a1bf 9410 be9e 9baf 9a3f
000001e0: 4ffb 2a88 442a 6dbf 1bda 2251 5db2 b13f
000001f0: 13e8 3ad8 41cc 933f 776a 3db3 9824 b23f
00000200: b41c 6e87 2253 98bf b1f7 6326 bbc6 793f
00000210: 7581 96f3 f7e6 9c3f f07c 0cb1 9f63 98bf
00000220: 333c bfa0 7b9e 9fbf 040a 5ec3 337b a4bf
00000230: b479 943b ddf2 943f 33fb ba79 ce3d a3bf
00000240: ec5a ad01 cc31 75bf 1e48 b5b5 b76c 943f
00000250: 3489 c825 f53d 5bbf e17b 11e3 11b7 96bf
00000260: 15e0 d7c4 d68a a8bf 075a 1248 f4be a83f
00000270: c4f0 20e8 8b7f 8ebf 5520 1a13 7375 b63f
00000280: 51b2 0990 7b40 aa3f 5f6d 42e0 de57 973f
00000290: 3c2d ba1c 7630 ac3f 0f62 59e1 42ba a2bf
000002a0: 1207 036f b77e 613f 3975 6127 6908 a7bf
000002b0: 4b76 4561 ce6d a3bf 86e4 68c5 1907 91bf
000002c0: df64 a676 edfc a0bf 9e65 8714 e82e 5d3f
000002d0: 7ca6 9ba5 5838 a3bf 84ac 925e 81bd a8bf
000002e0: 5294 3f44 4ccf 803f c63b c161 6e05 813f
000002f0: f1f2 8c73 ad8e a3bf 1c0c adb3 d50d 97bf
00000300: 979e a5ef 3714 b53f 924f 724b 1cc0 b43f
00000310: 30d8 fd76 bdad a73f 0b40 1f84 fd25 89bf
00000320: 1d0c 06ba 60ad 763f 2139 035f 37b0 773f
00000330: 61bf 0dd7 c560 913f 0f9f 5cb4 ff0b 88bf
00000340: b519 0178 91f1 7a3f d46a 9af3 6642 b6bf
00000350: e22b 4f28 e6e6 a3bf 8679 db14 8928 ae3f
00000360: 0987 a981 aa91 7e3f cd07 41da 3bd0 6abf
00000370: 34a4 e008 e136 853f c082 1be2 3342 843f
00000380: 02dd 3ce1 d850 a13f 013e 467e 7f27 903f
00000390: 5700 be72 8944 88bf e2c0 7011 81ed a2bf
000003a0: b020 3c2f 127b a3bf ea47 1160 7183 6c3f
000003b0: 36d6 1f69 f528 8ebf 518b 4ece 23e6 5fbf
000003c0: 8d2d d987 a1b7 923f 57b9 a29b 3e16 a1bf
000003d0: 285a b314 b28c a0bf b348 d375 8f19 8ebf
000003e0: 5bc2 1505 0b74 a03f 8fee 1548 b1ef 9ebf
000003f0: 5ad7 4a2b 0b09 68bf 01fb 90a4 0fec 8fbf
00000400: 58f1 8d05 02ef 873f 9c41 7fd2 588f 9ebf
00000410: 2e20 90f9 2629 93bf 8275 a9a6 b568 a8bf
00000420: 8def 1981 c22c 933f 4f68 aefa d049 87bf
00000430: 12aa 2258 e54d 8b3f 45de 189c f283 943f
00000440: 78a2 0b48 b21b 943f 89f6 3161 0093 9fbf
00000450: a41c 769d d706 ad3f be22 8464 7d42 773f
00000460: 62c5 e544 2114 67bf ab1d caaf 6fb9 363f
00000470: 62fa 25f1 27e4 963f 53fb 27a6 c05c 943f
00000480: f0c6 cb55 8e7a abbf 2557 b260 854f 99bf
00000490: 6fbf f002 3dac 77bf 46a1 39e0 cbe6 633f
000004a0: 511f a4ff 6df1 9e3f 3c2d 0c8c 1848 92bf
000004b0: 9b46 91a3 5c4f 9e3f 27ee 3f65 9f2d afbf
000004c0: 4cd1 494e 516e 903f 93c1 a0bc e755 a2bf
000004d0: 5c86 0faf 8243 a0bf ee14 41b3 70d1 843f
000004e0: fac5 032e cdcf 85bf c413 4e23 2bc8 963f
000004f0: 62c6 5732 568f ae3f 568b 948a b99c 513f
00000500: 2a12 d98c e8a0 67bf aa4b ec62 3bdc 953f
00000510: 8cf9 af61 9fc7 7fbf f704 af9c add8 82bf
00000520: 2dfe a4ef 8053 a03f b1fb d09d 0745 983f
00000530: 568c a0bd 9231 873f c3c6 f5d1 891f aa3f
00000540: cb4e 76ea 5609 a13f 4102 2d17 1282 b2bf
00000550: ac9d 0f88 38e1 9ebf f0d1 c38c 1996 90bf
00000560: 990e 0d54 0102 a0bf cd11 ac0f ffd7 99bf
00000570: c23f afff 2d97 8ebf 7649 b0b1 5e00 a73f
00000580: 821c 6b97 3b0b 80bf 0230 3dcd 91c1 973f
00000590: 8c41 24ae 6542 95bf 6054 b9e0 f81c 90bf
000005a0: 5aeb c913 064e a3bf 08b4 efde a604 923f
000005b0: fda6 133a 97a9 363f cc70 63bb 6d4c a83f
000005c0: 2cb5 c7dd 4779 a1bf be65 1bef 3025 9b3f
000005d0: 4745 ff28 9432 4e3f edcf 0f30 7a1b 8c3f
000005e0: fbb1 4eb7 b5cc 94bf db0c ceb3 a5e5 9fbf
000005f0: 5564 ed2b b2b8 87bf 1c5e c07f af15 7b3f
00000600: 950e 628c 0f18 7d3f 1d3d 802c c8d9 843f
00000610: bd82 2c18 a2f5 abbf 9fd3 941c ad04 92bf
00000620: d54c c3b6 474f a1bf 1694 a50b ddf4 8b3f
00000630: aa84 d776 e115 403f 6183 c25a a8f3 a33f
00000640: 186f aac2 5f19 6ebf a49e 31b6 6151 95bf
00000650: 29ce 0904 7db5 8f3f cbcb 9d22 eb38 8b3f
00000660: e475 da29 a5a9 983f 7b49 bd63 5709 b7bf
00000670: 8664 f6b7 e2bb 96bf c9c9 4dda 6c8d a9bf
00000680: bbc5 8c95 afd3 8e3f ec1a 4d81 5ce7 723f
00000690: c460 51da 1241 813f be1b b7db 7e12 98bf
000006a0: f0ad d636 7954 943f 0029 71ec 1b8c a3bf
000006b0: c2d6 3f94 db4b 923f 977c b81b a013 603f
000006c0: 5324 4c50 d978 8d3f db8f 6cea 73f5 9d3f
000006d0: 8be7 fd0e b39f 923f 09fc f744 ec37 813f
000006e0: 1278 a19c 6237 ab3f 49a1 68d0 e640 a13f
000006f0: 4612 3348 dc61 82bf 2c29 862f 4de7 b0bf
00000700: 2f08 5c93 f5e3 8dbf 2cc3 630c 4cbd a63f
00000710: a70e 9e4f 2cb9 8b3f 65de 6256 bb1c aa3f
00000720: 5636 b98a e97f 88bf f236 2a3e 8c5b 7fbf
00000730: 12df f7b6 16d6 82bf d0ef a2fc 0fd5 a43f
00000740: f4c8 2c63 9047 a83f a6f6 d06b 74de 633f
00000750: 4424 0c82 219f 93bf 6ad7 e0af 1669 85bf
00000760: cdd4 d833 29f7 94bf a02a e10b 1b6f 85bf
00000770: 5d09 8da3 cdd3 7cbf 7599 f5ee 1bd0 b3bf
00000780: 5415 9c9f 0fd7 80bf 8059 34d5 da74 8b3f
00000790: 90b1 4c82 ea2e 90bf 1e84 0f3b c6bc 64bf
000007a0: 2f0e d3f6 c181 963f 2f1e 7504 4c53 a8bf
000007b0: 5bbc 6577 8afa 623f d1ca a83d 5f51 60bf
000007c0: c1aa 0367 b17e 8a3f ff25 d121 fbc4 b2bf
000007d0: 9b56 a2ac d7fa 5abf d1b2 3405 bd02 94bf
000007e0: 12b6 146c 0a0f 7c3f 8850 5d69 4234 49bf
000007f0: 8071 3a4e f166 8e3f 90f9 01a3 c3e5 663f
0.006194318067266082 -0.010973357111580246 -0.0009504366509964015 0.0049750266216065184 0.011145118537679882 -0.05814013223207513 -0.004397193990137132 -0.05254295336860285
0.015101356601862091 0.036741820201356856 0.01732271159212773 -0.022066586923060086 0.05644747511063866 -0.02789451746588717 0.0035925017518879912 0.007358237394028068
-0.0039352239877246484 -0.050770223946198456 0.03911076803404477 0.03772691764353484 -0.03377392488668719 0.048664620626297644 0.05861234203023973 0.04588398470957572
0.04178229337274134 0.05514985953412557 0.037535904825989494 -0.013968954549141505 0.04537305220660732 0.018031119643094635 0.04994916257172562 0.04422576957689267
-0.04746915904010055 -0.014815404639881161 -0.028155964453362853 0.025870361697992738 0.01376526832842036 0.044082918791891586 0.05297126915672287 0.018992932356734556
0.025263497736861668 -0.023078126046671116 0.004583028621787229 -0.06661247183291409 -0.0489525823063187 -0.0071026070037021865 0.01870895387846168 0.04758312013244996
0.03868421445962856 0.03231942319404167 -0.02553074330892748 0.0038740489728949 -0.00987084766065481 -0.012346264596338547 -0.01147219537824891 -0.0185150277310861
0.030070819902974597 0.01803641884498502 -0.0336477929815517 0.02606051594149557 -0.003560193873766527 0.06912787657606893 0.019333866903913654 0.07087091804479849
-0.023754634395598287 0.0062930403275895256 0.028224825136591265 -0.02381753461952213 -0.03087800186750318 -0.04000245818953732 0.020457703362916482 -0.03758092151610128
-0.005174443150130808 0.019945974793991288 -0.0016627210635609792 -0.022182731136464077 -0.047934257057875275 0.04833186511784864 -0.014891713162903726 0.08772963730200563
0.05127321370386951 0.022796137273514257 0.05505723095583412 -0.0365773105701842 0.0021356184662132483 -0.04498604398461698 -0.03794712960619203 -0.016628649400648253
-0.0331796843849561 0.001781202927409665 -0.037539262977429794 -0.04832081107573408 0.008207889397406163 0.008311140402069383 -0.03819791827706876 -0.02251371297030512
0.08233975983386653 0.08105637399631707 0.046247406745280606 -0.012279491991563437 0.005536439741606916 0.0057832873282690775 0.01697072148402812 -0.01174163598223246
0.006578033673639562 -0.08695071647018021 -0.038870994968952535 0.05890301112752909 0.007463136712063231 -0.0032731217379770917 0.010358579715175599 0.00989189656996936
0.03381994008526058 0.015775672990967497 -0.01184947377601035 -0.036968263033829066 -0.03804833246800976 0.0034806455956095566 -0.014726559897080365 -0.0019469594637732855
0.018278621593976353 -0.03337283754204872 -0.03232342245762637 -0.014697190078014044 0.03213533818314281 -0.030211229347954 -0.0029339998385137624 -0.015586969575563272
0.011686340136059556 -0.029843700263712955 -0.01871167085849395 -0.047673870653606634 0.01872543251964447 -0.011371262216744919 0.013332168342761217 0.020034590508855272
0.019636903426461377 -0.03083420365555026 0.056692827197417445 0.005678644003872689 -0.0028172158992495902 0.00034674622273952554 0.02235472115853055 0.019885072842949224
-0.053669403050561004 -0.02471741106690852 -0.005779493642918839 0.0024293882323044606 0.030217856147856385 -0.01785314898283484 0.02959961651169483 -0.060894948110185525
0.016045828250257174 -0.035811654830811744 -0.03176506411524535 0.010165100546269259 -0.010650256125219738 0.02224795725807717 0.0596873222783756 0.0010749637534181642
-0.002884344291290715 0.021347930825026097 -0.007758734306661085 -0.00920234331522572 0.031887082341651364 0.023700827605576517 0.011325022136651135 0.0510218685912043
0.03327437984549205 -0.07229722085777103 -0.03015602426958501 -0.016197585312470453 -0.03126529837620957 -0.025238023120452802 -0.014936789861081826 0.04492469710398243
-0.007833924826071707 0.023199346687121654 -0.020761097673188497 -0.01573552009206869 -0.03770464889108523 0.01759587035842361 0.00034580175458974444 0.047458104252400796
-0.03412842352177345 0.026509060472425842 0.0009215568006714436 0.013724283782700264 -0.02031215602225876 -0.03114947233144681 -0.011582748380236799 0.006612477820474829
0.007103024230790252 0.010181011064587292 -0.0546084074505919 -0.017595963353602802 -0.03380798440925906 0.013650633733684397 0.0004908896350423093 0.03896833522708821
-0.0036742086716240567 -0.020818258996227926 0.015482880292643735 0.013292157167347348 0.024084644965673876 -0.08998628792804723 -0.02220110175912684 -0.04990711369363827
0.015052196265602604 0.004615174625377288 0.008424899375470203 -0.023508054886203437 0.0198534908028431 -0.0381783224225547 0.017867499278472428 0.0019624831309240187
0.0143906571988898 0.029256640608892198 0.018187330045726518 0.008407445769078608 0.05315693056103056 0.033698285046116334 -0.008975716546396072 -0.06602938089614402
-0.014594954070620584 0.04441297198525826 0.01353678338978821 0.05100045613783947 -0.011962723299031069 -0.0076556661830531215 -0.009197404345271862 0.04068803748074823
0.04742099009162529 0.0024254106379249683 -0.019161723673310385 -0.01045434688795029 -0.02047409419011075 -0.010465823459658907 -0.007037928845252087 -0.07739424308747352
-0.008222696360017302 0.013406476623043728 -0.015803970530372136 -0.002531420869204228 0.021979361238449065 -0.04751050524151556 0.0023167328283118355 -0.001991926209734409
0.012936960178611458 -0.07331819129571925 -0.0016467195696682538 -0.019541696017017444 0.006850281440433219 -0.0007691692614835302 0.01484478492721375 0.0027951069860698355

layer7_biases f8 [1, 120]
00000000: 8eab a0ee 28e6 82bf e7fc 3d48 2f5a 883f
00000010: 7f48 f05c 567c 963f 6ef9 dd57 5b7d 77bf
00000020: e865 99a5 c17b 83bf 68be b411 83b9 a2bf
00000030: ae07 4ef1 7981 71bf bf32 0d07 ddee 99bf
00000040: a5cd 72be 2e1e 67bf 364c e1ff 3902 82bf
00000050: b07d 13b2 0a52 843f fd04 1bb1 0baa 64bf
00000060: ced2 120f 8fe6 77bf ca5e 9591 4666 6b3f
00000070: c13f fa05 0c67 84bf 1301 8fe9 263b 6cbf
00000080: 602b 7045 0075 443f 8687 56e1 2c79 613f
00000090: e5d5 6a06 583c 783f eeb8 a4dd a730 95bf
000000a0: fec1 1b31 a2c1 88bf 08d0 60cf 5511 923f
000000b0: 4944 2bcb 9657 79bf e055 c37c 16ff 61bf
000000c0: 00ca 230b e0b0 1e3f de03 6d03 81b9 a5bf
000000d0: b5d7 f8fb c2dd 71bf 111f 4cbf dc67 89bf
000000e0: 4eb1 0dca 9481 713f bee6 f664 6781 8f3f
000000f0: c882 8c7a ad4f 6c3f 365a 8075 1150 75bf
00000100: 7efe d80f 9e0b 803f ee52 b356 3fb1 87bf
00000110: 8895 279f fafe 603f 58f6 b178 7929 793f
00000120: 5816 8447 f1ae 8b3f 3fbb 3d50 f4e3 623f
00000130: 2e78 db46 5350 73bf 14bc 2266 d117 8e3f
00000140: a9d9 97ad 3fb5 813f 8e48 5a22 11a1 803f
00000150: 04b5 d187 f584 8a3f 1507 e681 7ec2 4abf
00000160: 97b8 b761 a716 93bf aaa5 caab 2d83 523f
00000170: 395d 7f1d 68b6 9ebf 652e 6f18 9565 73bf
00000180: 4a90 ad19 7543 673f 69e6 6188 59b7 9bbf
00000190: 5dad 78c2 be4b a1bf 296e d513 595c 74bf
000001a0: 8197 df2d b991 803f 2a73 805d 2bd9 91bf
000001b0: 3e45 71bf 2758 90bf 00df 7a8d a96e 8f3f
000001c0: 6a6b c763 54fb 76bf 73e3 a09d 5247 503f
000001d0: 7bd9 07c6 d4e5 623f 8468 ee6e 6664 7b3f
000001e0: a4ab 8b2c 58a0 8a3f 5204 339b f2b9 833f
000001f0: 7210 cbfe 3eff 77bf a338 f309 78b1 823f
00000200: 56b4 9ac1 fd05 99bf 8597 7a63 90ed 60bf
00000210: eae8 ee22 2781 8cbf 5d19 079e 4a8b 88bf
00000220: 8357 9987 f58f 72bf 08e9 f3b0 b0d2 a4bf
00000230: 46b5 0fb5 d7c4 883f cce4 0d86 f0f2 7abf
00000240: 32f0 5f9b bce3 6dbf 1420 3215 cb1f 85bf
00000250: 1d46 a4de 2648 7c3f 4921 08e9 65a2 7fbf
00000260: 9ef4 78f9 6019 97bf 2547 b023 855e 833f
00000270: a6e6 07ff 4ce6 93bf 9cb3 7ff3 d8ea 903f
00000280: 06d1 e9f3 47b9 9cbf aa47 2daf c759 7ebf
00000290: e250 9f50 1ac9 81bf 3049 3963 2210 89bf
000002a0: b9e9 8dc2 bbc0 7a3f 6542 c517 57f2 72bf
000002b0: e579 bb9c 0ff9 8d3f 658a 6711 e425 82bf
000002c0: ca1c 7f72 5df0 5abf 20db 6897 c98c 58bf
000002d0: 47c8 1a37 95c2 90bf c9df dc2b 8b5c 82bf
000002e0: 9713 df2e 0092 6e3f 721a f4a5 b294 5b3f
000002f0: 5a61 0c8a 34ce 923f 4c45 99ea d8c1 7e3f
00000300: 41f0 981c 4efe 8f3f a8c3 8426 edb2 77bf
00000310: 0108 a392 381c 973f a7dc f583 052a 8ebf
00000320: 867d 405d 1ba9 88bf 5b56 dd64 94e4 83bf
00000330: 97fd 3122 f246 48bf bd76 db0c 2a38 a0bf
00000340: 03de 46da 1c3e 80bf 85b8 50bb 4bd0 643f
00000350: 800b b821 34cc 8ebf 4e55 7bf3 3589 733f
00000360: 4b06 8c01 f970 8b3f 7d2b 3de7 b476 3fbf
00000370: 0c2c 0b42 56cc 61bf 8e71 761f 1a41 963f
00000380: 4def 5078 a68f 973f 88cb 13de a0c2 9abf
00000390: b0aa 79f9 5e67 6bbf 1361 376c 005a a43f
000003a0: ea77 ee67 c9e1 653f b2ee 018a 5c06 913f
000003b0: e7f9 ba7f 6024 803f 0111 8b38 7231 7b3f
-0.00922805765374848 0.011890763656764182 0.021958684370539047 -0.005734783944602346 -0.00951339041346251 -0.03657159415376726 -0.004273868883389582 -0.025325254016297146
-0.002822009369617811 -0.008793309327449799 0.009922107276394282 -0.0025224903446036105 -0.0058351124036348356 0.0033446672720563774 -0.009962171490116025 -0.003446174622212203
0.000624299175684722 0.0021329762045789206 0.0059169233779150275 -0.020693419364015968 -0.012088076709432901 0.017644253523215553 -0.006187047040570334 -0.0021968306738055915
0.00011707656338780931 -0.04243090788668956 -0.00436187902191947 -0.012405132854396624 0.004273968895045789 0.015383537071886774 0.0034559620147692517 -0.005203312110117644
0.007834658487922082 -0.01156854136790161 0.00207470845747321 0.006143068788444582 0.013517270083421781 0.0023059627291596436 -0.004715276050516732 0.014693866662439027
0.00864648579134271 0.008119710789547232 0.012948911864635544 -0.0008166425430291303 -0.018641105021679562 0.0011299081808523273 -0.029992701340089332 -0.004735548404777389
0.002839783393413985 -0.027066611241457404 -0.033781014670547484 -0.004970882376564436 0.00809044524426006 -0.017429997999090542 -0.01596128564807952 0.015347790365339176
-0.005610780379778338 0.0009935671610163648 0.0023068576558628573 0.006687545900513684 0.013001145228789764 0.009632010804468436 -0.005858656001411432 0.00912755756726497
-0.02443691724936444 -0.0020664043511997043 -0.01391821456296723 -0.011984427402137393 -0.004531821346594247 -0.04066993866031693 0.012094197476438705 -0.0065793414549883515
-0.0036486324052003244 -0.01031454714235739 0.006904746851675661 -0.0077232342596363435 -0.022557749964324907 0.00945762648737831 -0.019433215204094488 0.016520871984471705
-0.028050541174210707 -0.007409839646088582 -0.008684354386709395 -0.012237805035657162 0.006531461179174186 -0.004625644880733225 0.014635202379790388 -0.008861333638326483
-0.001644221551019775 -0.001498410097736609 -0.01636727475006008 -0.008965575481496917 0.0037317279411319226 0.0016834015476107325 0.018364735532572986 0.0075090859696314675
0.015621767280315281 -0.005785871857640602 0.022568592023851867 -0.014728587236034164 -0.012041295798609363 -0.009713324859755781 -0.0007408792775009274 -0.031678499288074737
-0.0079309705841828 0.0025407294401907387 -0.01503792503263468 0.004769526239859557 0.013399072036466416 -0.00048009792884744896 -0.002172630760787003 0.021732719583825104
0.0230089198050643 -0.02613307338192386 -0.0033451895686103725 0.0397491581058508 0.002671140070972013 0.016625829623520168 0.007881883523961753 0.0066389524224101945

layer9_weights f8 [120, 84]
00000000: e2b0 7600 7c90 99bf d977 f78e 603d a6bf
00000010: 9402 e1aa d940 b2bf 15d3 1a5b 10b8 b3bf
00000020: d65b 78b4 d488 aebf ccdf 57fd c593 b73f
00000030: 5643 a8a5 9de3 9b3f 21b4 72a4 c038 a23f
00000040: 8524 8452 5de4 b3bf ab24 321a 4b66 b3bf
00000050: 511c f06f eb48 ae3f dd92 ec47 0a62 ab3f
00000060: d148 b99f 11e7 99bf 2a05 6f12 f56f b5bf
00000070: 30d5 6237 9b20 b0bf 5786 59e7 1f76 b13f
00000080: 4e5a 9c90 f965 91bf b7ce 915c c78c b13f
00000090: 74a3 e521 3fba a6bf 2d77 d86f 8001 a5bf
000000a0: 4ff7 d008 1cb6 a43f cca3 9cbc 708f a3bf
000000b0: 2b47 b619 357b 55bf 7459 80f5 70fe b23f
000000c0: 82a9 0e51 b052 a5bf ef7e a01a c69a a7bf
000000d0: aa1c 614a 2965 af3f e64f c15c 51f0 a53f
000000e0: 48d5 0f41 c127 853f deeb 0e55 7a5e b1bf
000000f0: de59 f5ea 65f6 ac3f a08f 275b c667 92bf
00000100: aeaf 4e17 1205 a53f 9ec8 92c2 74c8 aebf
00000110: 2f26 3894 2821 a43f a94c 3693 5222 a93f
00000120: 542b d37f ade4 a53f db04 2407 10e6 afbf
00000130: b23b 0b1a 7537 8cbf cdc3 44d7 acb1 903f
00000140: 0454 cecd d493 b6bf ae60 7d8d 04e9 8e3f
00000150: 81e9 d40c c559 a4bf 5413 638c 841e 70bf
00000160: ca8a 4dca 2474 96bf 7187 a36a 493e 6dbf
00000170: 790e 13cc cff9 a63f 98f0 ec0e c810 b63f
00000180: 574b 7f9a bcc0 b23f 06a4 8e3e 4a99 b23f
00000190: c3d5 5bc8 32af b43f 69a9 578e 2180 95bf
000001a0: d7d7 910d ebc1 b3bf d30f fb3f c385 acbf
000001b0: 67d3 896a 5460 a03f 7859 6ac8 6ed2 9bbf
000001c0: 2c1a f49b e784 9bbf 7b06 0c08 8866 90bf
000001d0: bee6 0254 b519 b13f abe1 77ea e831 a2bf
000001e0: 9c59 d0eb 8404 a43f 9a6b c571 a338 983f
000001f0: c30c 99af 6fc8 9ebf 931c 9d72 2368 953f
00000200: fa8d fd10 7a7f 793f 2e45 e96e 6c5b 9c3f
00000210: e852 4383 38d2 ae3f a1d3 bee2 bcc6 95bf
00000220: 2f8d 7d83 4429 a0bf 49b1 76d3 4beb 95bf
00000230: 97b6 4fd1 9659 ab3f 000f b95b 678f af3f
00000240: 14ea 937b a874 a33f 23a6 c4f4 ee5e 75bf
00000250: 5b10 1fab 3447 b13f 1839 3fe4 4e13 a8bf
00000260: 0363 d7b9 18d4 acbf b649 f9cf bd2b 603f
00000270: b56b 84d1 5a9f 963f 4fb4 d59f 26a7 b03f
00000280: 8ea0 b395 0040 a53f 6529 e650 f2fc b13f
00000290: 8f06 1726 d69d 7a3f ea57 0d94 7bc3 a33f
000002a0: 28da 4a27 bc6d aebf b454 7ad3 8dec 92bf
000002b0: 44d7 b220 134d b23f 8d98 794a e01c a13f
000002c0: 837a 1b32 99b5 9abf 5c6a 18e2 8510 b1bf
000002d0: a210 a3e9 0b51 a73f 15f9 a8cb 83c5 a8bf
000002e0: 52dc 8511 e77f ac3f 9d5f 3c1d 6daf b33f
000002f0: bbb8 95dc 0e7d 9c3f 4181 3fde 77ec 8a3f
00000300: 2f68 e4db d1a8 a8bf 6927 d26a 8a06 ac3f
00000310: 797b 2db2 a7b4 a33f 3ff4 806f c8cf b9bf
00000320: d716 118f 2622 b4bf 7110 d048 0e93 b2bf
00000330: feb1 a29e f82e aa3f 4d7c fb52 19f2 863f
00000340: 0ab0 a345 9aed 523f 21fc 3cee 49f0 90bf
00000350: 093e 1703 c37e 9cbf df05 bd37 6122 b0bf
00000360: ce32 1b21 afd3 a53f ca1e fe31 908f 8f3f
00000370: 14a6 a1a8 d074 adbf adfc c58f de04 90bf
00000380: fd9f a9fd c21c 803f 6e60 0523 6e39 93bf
00000390: d667 ab50 52d6 aabf 5f62 2e9f 6e6d 813f
000003a0: 05c0 88b8 7793 97bf c2fe 07ff bd8e b73f
000003b0: 46e3 925e 0bc7 c1bf a44e 978f cbfe 9ebf
000003c0: 43f0 fd38 ddd7 963f db55 7aef aae8 95bf
000003d0: 08af 0610 12ee a3bf 39cf c2e1 a610 633f
000003e0: adbe b04a 4ff3 a23f 3364 1fe2 27cb 6c3f
000003f0: 9ba2 89c9 ada7 a53f bccd b50c b42d 9abf
00000400: 9388 8942 6114 aebf b68d 9ef4 7ec6 a33f
00000410: b2ec 2a2a 44cf 723f 86be 0f64 d320 a1bf
00000420: 9596 2ef6 6b5b b8bf 9857 352f bfc5 afbf
00000430: 490c 7414 a5dc b7bf 52c8 8b09 a794 a73f
00000440: c43d 0267 4c81 c13f 75af 3fad ebab 8bbf
00000450: 7550 b9f6 63a5 99bf bad2 721a 82ae a7bf
00000460: f9a9 9160 776b a63f 0e32 ce27 ca86 a53f
00000470: f162 b66e c64a b9bf edbf e799 0a8b 9ebf
00000480: 2498 d9f6 82d7 9c3f 15fa 4faa de17 9ebf
00000490: 80c5 ccfd 90b3 9b3f 5654 5344 5d36 9c3f
000004a0: 3426 0b9f cb86 b7bf 1a60 1a46 ead6 8f3f
000004b0: 383d b652 cab3 aabf fb81 069d 9343 a8bf
000004c0: bd36 c96d 53a8 a2bf 09aa 7274 30f1 ad3f
000004d0: bf70 d9ca ffb7 abbf d42a 4b7a 4a22 a43f
000004e0: 2409 a944 48f0 bebf b1cf a464 9691 843f
000004f0: 656a f17e 7594 b6bf 5af9 b2d1 140a a5bf
00000500: d913 5e06 17df a43f b0d5 8678 f1b6 afbf
00000510: a9d5 711c e99c b4bf 9055 06fc 6469 bfbf
00000520: 3f71 81e6 3b2f adbf d14a e83e 5188 993f
00000530: 1a0e 8e50 2daf 923f fc46 e5e1 b52c aa3f
00000540: 30a9 8e3d 621b 97bf 7a7e 9337 de14 acbf
00000550: fe1b afe3 1fce 95bf aa42 00c7 7036 7bbf
00000560: 3eb7 ca08 3de1 81bf b1bf 66f3 f213 afbf
00000570: 3722 e9b2 15e2 7dbf 461c 53cd 311f b2bf
00000580: a085 0352 c8c5 a63f a5b2 9ad0 8c13 b03f
00000590: 6878 8597 692c b7bf 0cbc 593c 7628 953f
000005a0: 3bfd fd1c 2ca4 a13f d6b4 ac0e 7009 aa3f
000005b0: 6293 3906 68d7 a83f f123 1e64 12c9 a6bf
000005c0: 996d f331 b6cd a93f 6b81 9e7f 74cf b6bf
000005d0: 8a35 0f3d 930b b23f cbb9 76f3 e2d2 8b3f
000005e0: e5d7 92e0 7023 a33f 3fd8 109d 47ab 9e3f
000005f0: cf67 fefc 3c62 71bf e7f1 e066 ad16 afbf
00000600: 3621 0e3b 007f b13f b0b6 a3dc f279 9a3f
00000610: 441f 110f ffef 60bf bbc8 7c63 d89a a2bf
00000620: 8c18 2e50 81a5 67bf 8c76 b236 742c a23f
00000630: e0f1 105e 7adb a1bf 7d8e 76ca 1b33 78bf
00000640: 6c3b b2fb e157 a83f b89a 3974 f760 bb3f
00000650: 7b18 2793 afae 9abf 407e 68e7 d556 8dbf
00000660: a70c 5ab8 efdf a83f 9f35 e290 0705 ab3f
00000670: 3bef 595a 0538 adbf 6043 b633 20be a2bf
00000680: 5410 228f 5b7a a93f fed9 305b 3a02 b1bf
00000690: 01fa 5894 a13f 773f d74f 0bf4 487c 90bf
000006a0: a0f5 9b23 fac9 b53f 9b78 ac03 657a 963f
000006b0: 95e2 9fd6 ca7a 46bf 4f8d c4c0 b30f a0bf
000006c0: 380b 0bb7 7fa3 593f faf7 d535 4033 a5bf
000006d0: f9dc 9956 c79a a2bf 571f a90a 0120 afbf
000006e0: 162f e73d 1804 ad3f 4c5a f4ad 3a53 b13f
000006f0: 0645 974d 185a 6cbf 2015 f40a 0079 b13f
00000700: 48d8 24a0 8388 b93f 2905 72c8 31fd abbf
00000710: 8d96 f866 a52a a5bf 66d2 49b0 1969 ae3f
00000720: 184f dfaa f9b8 93bf 5f20 7e3b ec28 a9bf
00000730: d1fd 04fe 5375 963f ac28 ed02 88c1 733f
00000740: 068f b8f0 ea8e a23f a82e 62cc f460 b5bf
00000750: 09c3 fa87 e928 b0bf a8ae 2690 ace5 783f
00000760: c4ec 707c f190 a9bf 86c5 e2fe 67ce 9b3f
00000770: 31f1 2721 f13d babf b48a 5796 476b 9bbf
00000780: 1d4b 4264 ecc7 a6bf dfcb 1645 01fe a23f
00000790: d5a0 346f c60e b0bf f6cd 98f9 01f6 a9bf
000007a0: 8d04 e296 540d b43f eb9c 1b5a c6b0 a83f
000007b0: f242 23cf 9a41 a03f 8f36 009b 26c4 a5bf
000007c0: 2a95 a52f f0b9 b6bf 5c9f 38cb d159 b7bf
000007d0: e8db e264 fe00 943f d92e 52da 7470 a7bf
000007e0: 16c7 62ce 6f5b aa3f 4c4f c10a 76c5 98bf
000007f0: a3bb 2aac 6084 7c3f 86e0 0043 e7fa 913f
-0.024965226677225234 -0.043437020732866656 -0.07130203649377115 -0.07702734207380176 -0.059637686758086936 0.09209859309328222 0.027235472904126944 0.03558923728392239
-0.07770331635050994 -0.0757796229319349 0.059150082983301495 0.05348236206035548 -0.02529552018524656 -0.08373958301583131 -0.06299753286551346 0.06820868871866402
-0.016990565730419065 0.06855436334609065 -0.04438969887525604 -0.041027082112334724 0.04045188529606369 -0.038203738235388224 -0.0013111132201157432 0.07419496530233066
-0.04164648999661137 -0.04610270571742869 0.06131867440176937 0.04284910447373118 0.010329732702283892 -0.0678478677427132 0.0565673684420067 -0.017973994554168038
0.041054311127793994 -0.06012310862696889 0.03931547936742807 0.04908998534224313 0.0427602976356726 -0.062302113410632486 -0.013777651650711185 0.01630277694602338
-0.08819322609481622 0.015092883651661584 -0.03974738866459671 -0.003935354010711507 -0.021927428100194025 -0.0035697397153037704 0.044874662076407064 0.0861935650290796
0.07325342914491038 0.07265152003550676 0.08079831496782845 -0.020996593773739223 -0.07717770654002663 -0.05570802837385682 0.03198493767278059 -0.02716992471922583
-0.026874178784988142 -0.01601612614741164 0.06679852772767966 -0.035537031766526304 0.03909697893702743 0.023653558558503464 -0.030061478703157684 0.020905069227663175
0.00622508699584356 0.02769250323246302 0.060197607062638714 -0.021265937175218522 -0.031564847041204984 -0.02140539625331542 0.05341788582869105 0.061640958735123874
0.037999405942134384 -0.005217488691678737 0.06749276330725833 -0.04702230964868387 -0.0563056685311434 0.0019739825509443544 0.02209226516525194 0.06505051996437426
0.04150392367756793 0.07026590800356798 0.006498180884081286 0.03860078985478295 -0.059430961414751515 -0.018480506928047105 0.07148856685929866 0.03342343243711907
-0.02608336799937173 -0.06665837068468633 0.045540210981500864 -0.04838191853603938 0.055663319481873544 0.07689554179921605 0.02782080861418799 0.013146339864704816
-0.04816299256545197 0.054737401523268066 0.03848766374607399 -0.10082676622637708 -0.07864609711495106 -0.07255639341025401 0.051139611591995746 0.011203954548760242
0.0011552816927702402 -0.016541628995806804 -0.027827307761809226 -0.06302459345626897 0.04263064650658564 0.015410543943075967 -0.057531853279965045 -0.01564357521556008
0.007867358556907783 -0.018773766410362595 -0.052416393611295284 0.008509506447624547 -0.02302348197753192 0.09202182270382323 -0.1388868533884084 -0.030268841399289884
0.02230783138610116 -0.021395369402474756 -0.03892570920592503 0.0023272761737533035 0.037012555949670435 0.0035148409815346725 0.04229491315056074 -0.025564969325797313
-0.05874923646185084 0.038623778687248686 0.004592195766856809 -0.033453565563715634 -0.09514498482038854 -0.06205556346200963 -0.09321052312229584 0.046056003489767364
0.1367583754513203 -0.013511506294854073 -0.02504497712500649 -0.04625326702936179 0.04378865293331908 0.042043988570274235 -0.09879722788754088 -0.029827275889999717
0.028165861431624375 -0.029387931008381402 0.027052178850856645 0.02755113343740264 -0.09190056450747691 0.015546636833548223 -0.05215294131914522 -0.047390568655149644
-0.03644047465477971 0.05848075314982643 -0.054138177406203074 0.03932411902277058 -0.12085391689564468 0.010043311067967272 -0.08820280408091603 -0.04109253940395048
0.040764541175157105 -0.061942621195537284 -0.08051926559877266 -0.12270194199512319 -0.05700099171437722 0.02493407198387382 0.018246372262650558 0.05112236387743782
-0.02256539822307352 -0.0548467104761103 -0.021294115325670042 -0.006643715416445298 -0.008730389433675986 -0.06069907399375952 -0.007295689355097105 -0.07078849089440195
0.04447771073479179 0.06279831021192679 -0.09052143048526917 0.020662162240508805 0.03445566038043998 0.05085325411924095 0.048518419990421405 -0.044502806397822676
0.05039758071662987 -0.08910301318838314 0.07048912277897137 0.013585827879833886 0.03737976781250988 0.029950255357299446 -0.004244077906969636 -0.06071988945811651
0.06834412996079639 0.025855822293059105 -0.0020675641649496052 -0.036337625641310344 -0.0028865361832144994 0.03549540679635496 -0.034877609236420914 -0.0059081159192008155
0.04754549214805234 0.10694834315800505 -0.026056998592843144 -0.014325781940953353 0.04858349919688836 0.05277274745558746 -0.057068030623638376 -0.03660679465531902
0.049761639807031216 -0.06644024587954075 0.005675917787412833 -0.016099109549784742 0.08511317605367319 0.021951273297525203 -0.0006860247060550157 -0.031369797974799433
0.0015648600785175947 -0.0414066377370403 -0.0363371175016542 -0.06079104666838358 0.056671865040327216 0.06767622706352333 -0.0034609293622699404 0.0682525660268607
0.09973929080737876 -0.05466609546511798 -0.04134098894091407 0.05939560200650788 -0.019260312132089202 -0.04914034105519315 0.021931946162338015 0.004823237700131749
0.03624662579048103 -0.08351068487007274 -0.06312427110493614 0.006078409266062991 -0.049933954659047625 0.027154564792629475 -0.10250765857194179 -0.026776426840920478
-0.04449404453148118 0.03709415405628368 -0.06272545065860709 -0.05070501491391248 0.07832840617813215 0.04822368478726865 0.03175052431618565 -0.04251213686084753
-0.08877469218494541 -0.09121428691343908 0.019535040767291095 -0.04577984967280963 0.05147885698660397 -0.024190754324379157 0.006962182642992784 0.017558682884754727
