results/lenet5_weights_full_son.npz (npz, 665224 bytes, 10 tensors)

layer0_weights f8 [6, 1, 5, 5]
0	0xbf964878bfde58c7	-0.021760832510687302
1	0x3fad7a7e5365c10b	0.05757517593417746
2	0x3fb4117f0b9b54c9	0.07839197190635895
3	0x3fc0958434311a33	0.12956287907054928
4	0x3fbc51db95634bcd	0.11062405011334349
5	0x3fbce4bf8c70a24d	0.11286542109213223
6	0x3fc6f8eeb0a920ac	0.179471813449941
7	0x3fcdf60a73bdd750	0.23407107020801243
8	0x3fd002ccddb93471	0.250170914198697
9	0x3fc8b2b224c9f9be	0.19295336529098778
10	0x3fb34e82f12274e1	0.07541674029421898
11	0x3fb4cdd40ceb949f	0.08126569095073187
12	0x3fb4087e4ed3fbc1	0.0782545988513297
13	0x3fba214c42a8d738	0.10207058551244763
14	0x3fb69ac72b993e91	0.08829922499102795
15	0xbfba2c6667cee1db	-0.1022399905622317
16	0xbfb877d9ad8a1240	-0.09557877051163022
17	0xbfb9972b1769f08f	-0.09996289559961923
18	0xbfae10d6df5b6622	-0.05872222401167117
19	0xbfa92024b51b8279	-0.04907335959228915
20	0xbfd08511ade448b2	-0.25812189084639237
21	0xbfc8fad6934b9a11	-0.19515497390894201
22	0xbfc402b507d748f3	-0.15633261568888876
23	0xbfbc759b0a93e785	-0.11116951950307737
24	0xbfb945cb0b34f338	-0.0987212087974968
25	0xbfb8b2cd187e6e8b	-0.09647828910822846
26	0xbf6a2d1a4510cd50	-0.0031953347284116376
27	0x3f59e87dd5319e2c	0.0015813092075179875
28	0x3f8e99c17b2fc93f	0.014941703388079318
29	0x3f989cbfb08f00e1	0.024035449172289062
30	0xbf93dd8e75e53894	-0.0193998584230078
31	0x3f94a0dc952f4c96	0.020144888501658707
32	0x3fa705b0a8ae1a64	0.04496528681834347
33	0x3fb5f650060f9398	0.08578968189210767
34	0x3fabaec1eb23cd7a	0.05406766887054011
35	0x3fb53608c646088e	0.08285574761069567
36	0x3fc225c581b4e8cf	0.14177769502004486
37	0x3fc740d6940dbbee	0.18166620473081657
38	0x3fc4bf3991d7584b	0.16208572026397614
39	0x3fbc230f5d6a8068	0.10990997343697162
40	0x3fbb39dd9f7d02a7	0.10635171073682646
41	0x3fb8e310cca15471	0.09721474643568385
42	0x3fae734be525c432	0.05947339222155569
43	0x3fb4cc2d66160bdc	0.08124049894654156
44	0x3fbf1bdf9348b0b9	0.12151906343268849
45	0x3f8133f32158ffa1	0.008399867491902859
46	0xbf911c2e4e34336a	-0.016709064028919064
47	0xbf8781f3a01292cb	-0.01147833187344229
48	0x3f86e68e36ad384e	0.01118193725929131
49	0x3fa01007cbf8bbd1	0.03137230267417802
50	0x3f968cb5992ef653	0.022021138643813675
51	0x3f8c0938e8fa8b30	0.013689465150780927
52	0x3f7a817e81fc5e98	0.0064711515149366225
53	0x3fa821581c0682e5	0.04712939588649138
54	0x3f0f12a0d372adfc	5.926659871965595e-05
55	0x3faaca21910f7325	0.05232338805919871
56	0x3fa56a51d769f9fa	0.041826779885912616
57	0x3fa110379c9362a3	0.0333268526680446
58	0x3fbe65a551a82fa3	0.11873849147394692
59	0x3fb442ed6a9c8c81	0.07914623120136534
60	0x3fbe30d7eb00c08b	0.11793279158951202
61	0x3fc310d704d4dbe2	0.14895141349708668
62	0x3fbfd0ac010d061b	0.12427783036857713
63	0x3fc2eb3862fc386c	0.14780335267318223
64	0x3fc29b8ac06de9bd	0.14537176509823083
65	0x3fc09d569f4eb31b	0.12980158594782484
66	0x3fbf86e123109be1	0.1231518469436277
67	0x3f93a9e7e7df1180	0.019202827002815948
68	0x3faffe83775c9533	0.06248865921069537
69	0x3fbc6fe0eeb243c0	0.11108213260219113
70	0x3fa1349499e128eb	0.03360428217327346
71	0x3f742e58801c6375	0.004927011208359801
72	0xbf9b4bb5fe897f72	-0.02665600172110722
73	0x3f8d54fab5b81f36	0.014322241469031032
74	0x3fa927c2432b5bad	0.04913146085680551
75	0xbfb72d660536e9f0	-0.09053647639567663
76	0xbfd45b3848de97d5	-0.318067618524194
77	0xbfd4d8f7aebab15d	-0.3257426458683506
78	0xbfb58eefb7396700	-0.08421228621719123
79	0x3fab6270d20eafc0	0.05348541797806616
80	0xbfd54c049f71db99	-0.33276477404381805
81	0xbfdbb1e68d831d9a	-0.43273319072292227
82	0xbfcff9c857537d3f	-0.2498102594754332
83	0x3fa4bdc3b6c23d25	0.040510288295190024
84	0x3fbbdf0a6c73eb2b	0.10887208125852214
85	0xbfd878c32152f737	-0.38237074140839716
86	0xbfcf5d7d7e04db10	-0.24504059460897354
87	0xbfa768dcea59ff90	-0.045721915824287085
88	0x3fc2f25e0a866b32	0.1480214644805869
89	0x3fc22b919a2f6831	0.14195461300443094
90	0xbfc1b8d070c403d1	-0.13845258241783978
91	0xbf8555d3eda8d062	-0.010417609873094761
92	0x3fc38e57d385740d	0.15278146579922272
93	0x3fc654b1450ae72c	0.17445960875721178
94	0x3fc371d9ab8846fa	0.15191193461992453
95	0x3f8daaedd35e5bce	0.014486177456815155
96	0x3fb43215f51dd725	0.07888924822131267
97	0x3fc5002fdffb2247	0.16406820713588585
98	0x3fc45495ba17b0c6	0.1588313254027353
99	0x3fc4836204d78ceb	0.16025948749948013
100	0xbf989c22806731c7	-0.024033106886962387
101	0x3f6bccb5c13a1648	0.0033935117624562007
102	0x3f831bb2177ae665	0.0093301690497924
103	0x3fa4a542a56974a6	0.04032333630741762
104	0x3f9ba4c15cdfbe1e	0.026995679181650904
105	0x3fb1ee8de5a922bb	0.07004629952383372
106	0x3fb5bd4fc4ccf7b7	0.08491991572097289
107	0x3fb8084ff2b5df9b	0.09387683558986597
108	0x3fc3eefe802662fc	0.1557310224277656
109	0x3fb7bf03d38cbb5b	0.09275840678013252
110	0x3fc3aec2ada62ab5	0.15377076605758125
111	0x3fc80289ff13d2d1	0.18757748560860546
112	0x3fc9b601ffbcde6a	0.20086693751521817
113	0x3fc5aaa03e370951	0.16926959073868855
114	0x3fc19206bab87099	0.13726886861048085
115	0x3faa0f130d7b524e	0.05089625873157343
116	0x3faabcba977e28c7	0.05222113703992331
117	0x3f8a67b97014f4e2	0.012893151028601616
118	0x3fb0e4e219b543c4	0.06599248054159462
119	0x3fbe07d92beaea33	0.11730725595672524
120	0xbf8ff448aad2f702	-0.015602653229844336
121	0xbf9e6e57b1929fa2	-0.029717798436336935
122	0xbfa7ad5b224fe983	-0.04624447625970431
123	0xbfa214a1a0e35ebe	-0.035313654794376856
124	0xbf843e0a1908034b	-0.009883955849547063
125	0xbf9a5863fd6bdeb3	-0.025727808325398182
126	0x3f8f6fd50887009c	0.01535002167008797
127	0x3f957e8e06144e59	0.020990580674221302
128	0x3fa997c13fb3bbcd	0.04998592283833823
129	0xbf6372d13e2a3ef5	-0.002374085118681419
130	0x3fa32cafa95297ff	0.03745030347754152
131	0x3fb4060051a8b411	0.07821657174709197
132	0x3fbd23ee1de8787f	0.11382950048616357
133	0x3fc50b65617083bb	0.1644102788714273
134	0x3fb76ed946fd78c6	0.09153516753346755
135	0x3fc36ceeca26bab8	0.15176186438244144
136	0x3fc7286a9409d66a	0.1809209082454573
137	0x3fcb30a50829a183	0.21242201708379235
138	0x3fc596b510bb134d	0.16866172139102745
139	0x3fc1dacc1a3fc908	0.13948966294953657
140	0x3fadb63b0908caff	0.05803093419344484
141	0x3fa7db3488fb2bf8	0.04659427806981137
142	0x3fa9db46fcaae9a0	0.05050107797929404
143	0x3faa794f3e010354	0.05170676833996049
144	0x3fb541007cb0e4eb	0.08302310032094666
145	0xbf9e7fbcc3bc9e34	-0.02978415436441946
146	0xbfa675bfd9a35f43	-0.04386710674015017
147	0xbfab5b508f49b77e	-0.05343105076904829
148	0xbf99b4bc390c2d1f	-0.025103512746722175
149	0x3f722acaf72961f3	0.0044353416766047425

layer0_biases f8 [6, 1]
0	0xbfb968b3a0add284	-0.09925387070490826
1	0xbfb1bed2d85fd774	-0.0693179872758643
2	0xbfa9af803ba3e20f	-0.05016709068326374
3	0x3f6ab88485feaa9d	0.0032618130062094922
4	0xbfac3437a73fdc71	-0.055085887113755734
5	0xbfa8953c681d05f6	-0.048013580044891244

layer3_weights f8 [16, 6, 5, 5]
0	0xbf7bc45249438c41	-0.006779023580949562
1	0xbf98bf2599b4cf64	-0.02416666746758213
2	0xbfa63976a32ff5f2	-0.04340716115983047
3	0xbfb64a05d8871691	-0.08706699882812986
4	0xbfc2ddbff3aa0567	-0.1473922672048886
5	0xbfb20ebc445f8b32	-0.07053734463947306
6	0xbfa6f73d03195482	-0.044855028751649165
7	0xbfa35f7a67b747ac	-0.03783781543792428
8	0xbf9094fd6d2d53d1	-0.016193351544035842
9	0x3fa8dce578a7f18b	0.048560305574912276
10	0xbf9f45da4cf60376	-0.03053990454418761
11	0xbfb8a62d75ee4f59	-0.09628566865131684
12	0xbfb4cbe5d2e7a7f5	-0.08123623274846621
13	0x3f6e04d4be0ce2b9	0.003664412987202628
14	0x3fb23b5a7dbb1fd2	0.0712181622467363
15	0x3fb8551820fb1204	0.09504843526071488
16	0x3fb53d4c2f90d36b	0.08296657716057403
17	0x3faf1287408dc1bf	0.060688234930128974
18	0x3f9d4fb8c4828877	0.028624426836025365
19	0x3fa42763d2179037	0.03936302127456808
20	0x3fb0b2416a1c4bbf	0.06521996346081858
21	0x3fb8ab23fd7b54e8	0.09636139811057698
22	0x3fb2d0858e18ef7e	0.07349428862738525
23	0x3fad31c4e7608b3d	0.05702033352306166
24	0xbf72c77caa26e7ce	-0.004584776850998963
25	0xbfb29c441b85d4e9	-0.07269693061774131
26	0xbfb7b98ea7913956	-0.09267512885091853
27	0xbfb8b366721e9bba	-0.09648742948648606
28	0xbfbab7a1c6125ded	-0.10436450086341838
29	0xbfb00994b18ea4c6	-0.06264619192974683
30	0xbfb550ddd51b39b3	-0.0832651753691838
31	0xbfb2338dd7ee8bdf	-0.07109915277264588
32	0xbfaf8da93e81dd53	-0.06162766349819528
33	0xbf884dda514788e6	-0.01186724243683952
34	0x3faceb94f0ecf251	0.05648484650598518
35	0x3f61ba2378497e53	0.0021639530917097276
36	0x3f52e28daf07c17a	0.0011526473646164812
37	0x3f7f70dd5fa7b6e4	0.007675995579558868
38	0x3f6048ad68d3f59f	0.001987780275725284
39	0x3fb9b8f04d78a228	0.10047819033992111
40	0x3fab72a1485d82fa	0.053608932574894255
41	0x3fb5dbaf0d180c6b	0.08538335866619355
42	0x3faeeef742788680	0.0604169148102871
43	0x3fa8fc5bbe752687	0.048800341605397306
44	0x3fa808b853fedb97	0.046941528561936945
45	0x3fb126eff77b6f29	0.06700038711590807
46	0x3fb7bd1e21fc2e61	0.09272945718492444
47	0x3fafdcfcfb020567	0.06223288120328157
48	0x3f9d96144e6615a2	0.028892819676476507
49	0xbf74312935ac3d1c	-0.004929696059448287
50	0xbfac1a7355b1cffb	-0.05488930150104917
51	0xbfad1e4c43c1f095	-0.056871779700459126
52	0xbfb9e662e41235c1	-0.10117166584151162
53	0xbfbd7d01f4d5f4d9	-0.11518871524272657
54	0xbfb16f67115194fc	-0.06810611889666868
55	0xbfba5ef40b99a29a	-0.10301137240606764
56	0xbfb1d73ec346b2cb	-0.06969063060268892
57	0xbfb5293d2b7b1b89	-0.08266050635857715
58	0xbf931eebe6cafdb0	-0.018672643624766116
59	0x3fa9129079325f52	0.04896975974514696
60	0xbf722dd7bf85ed84	-0.004438250318681173
61	0xbf404c3b06aa9df0	-0.0004973686421480532
62	0xbf86ea5287a56bf8	-0.01118912197551046
63	0xbf60cae93c5223eb	-0.0020498805411688268
64	0x3fabe329f0752842	0.054467497446765836
65	0x3fb211f1895d69a1	0.07058629611620983
66	0x3fb45cc55e58ff4b	0.07954057267579377
67	0x3fab7d54461d800f	0.053690560873974495
68	0x3fa3df2eb85ff427	0.0388121223513525
69	0x3fab5d1c24def3e5	0.05344474744877185
70	0x3fa82bbd3eddb98f	0.04720870392235376
71	0x3fb3a420f65a41b2	0.07672315611330907
72	0x3fb1c9fbfcacecf1	0.0694882861979982
73	0x3fa183858b4a0b76	0.03420655560787271
74	0x3f768942edcb45d6	0.005501996460865985
75	0x3fa71e10e3eaf5c7	0.045151260206221226
76	0x3fc2a1a75e5f70fe	0.14555828197524784
77	0x3fb3c266a4b39e5e	0.07718507309947983
78	0x3fc210da32780431	0.14113929237649495
79	0x3fd4d191672d166f	0.32529101444047276
80	0x3fb3628e5a21c639	0.07572259617315859
81	0x3fb09c654edf339b	0.06488640952666318
82	0x3fb9fa01ea99b93d	0.10147106149245118
83	0x3fca5a31f160d17d	0.20587753568691972
84	0x3fcb1376e7b09459	0.21153150856949557
85	0xbfb2940b0fb03ebd	-0.07257146008509614
86	0x3f6a450e80050b54	0.0032067568974140457
87	0x3fc13e4b49f0b7c0	0.13471356497160336
88	0x3fbca8e9c5117303	0.11195241032823948
89	0xbfa4ed6eef774d34	-0.04087397263688289
90	0xbfade5040b833cbf	-0.05838787689719415
91	0xbf9ead82661e981b	-0.029958760722046045
92	0x3f9713da3a91f13a	0.022536668610414902
93	0xbfb6808354cb3543	-0.08789845295105629
94	0xbfb89cfc3e46df61	-0.09614540596419154
95	0x3fb312cd9411e989	0.07450566163053031
96	0xbfb84b626d998124	-0.09490027595302714
97	0xbfc24ef1751e7ee3	-0.14303415507037362
98	0xbfc0428b44779936	-0.12703076213001346
99	0xbfb3e5bb9cf71bc9	-0.07772419531020981
100	0xbfb08e9cf39b2dba	-0.0646761030904405
101	0xbfb1df8f60b7a1a2	-0.06981750594389394
102	0xbfb79016fa4e93f1	-0.09204238520631215
103	0xbfbd02f59a4c02b8	-0.11332640664114535
104	0xbfb604d02b0af84f	-0.08601094294405807
105	0xbfb79430ca8e795b	-0.09210495896556863
106	0xbfb4fa757cc4ef2f	-0.08194670005917425
107	0xbfb30dd42076341a	-0.07442975800059096
108	0xbf953ae40de83244	-0.020732463215653377
109	0x3fa575e16b80ae43	0.04191498219765013
110	0xbf81f3ebbe40d9a5	-0.008766023391314113
111	0xbf8d631ffa6c9b40	-0.01434922202095168
112	0xbf9ebdc98f0ef34f	-0.030020856243697932
113	0x3f5ac960a12e11d4	0.001634926190235854
114	0x3fb2b920daa9e5bb	0.0731373342367964
115	0x3fb3a20baf749e11	0.07669137033064312
116	0x3fb3715c4e22d073	0.07594849498383542
117	0x3fb1af54164c9a83	0.06908155006804333
118	0x3fa5e5b7f24be915	0.04276823837968117
119	0x3fa413dc515e827f	0.03921402447963817
120	0x3fabc81d99094520	0.054261135989359
121	0x3fb0b4d26ecf68fa	0.06525912480666199
122	0x3fb317925ed8526e	0.07457842650939892
123	0x3fa08374bf3707cc	0.032252930013342146
124	0x3f7f287fabf1848e	0.007606981961630356
125	0xbfafe3766863bd67	-0.0622822763851854
126	0xbfaf3771dec01990	-0.060969885293206905
127	0xbfb196a10ffad13f	-0.06870466842776056
128	0xbfb8a6b75a2121dc	-0.09629388761926044
129	0xbfab7639fbf6ac6e	-0.05363637161948352
130	0xbfb8833d14e0534e	-0.09575254211115444
131	0xbfb3525988245339	-0.07547530721451502
132	0xbfb4cdddab7efc39	-0.08126626431384033
133	0xbf94008077eb1f7e	-0.019533164328805246
134	0x3fab3602eed4001e	0.05314644971258552
135	0xbf7152870a209096	-0.004229094980505851
136	0xbf8fe67eec7a9198	-0.015576354591140526
137	0xbfa47b6fa4da9d2d	-0.04000424277665569
138	0x3f6379596cb104a6	0.0023771997998954407
139	0x3fb098c48bca670f	0.06483105099541951
140	0x3fb1a8dc39e4e025	0.06898285306385839
141	0x3fb376487d9a929f	0.07602360788821237
142	0x3fb047aeb21c46ba	0.06359378670120011
143	0x3faa77e47a10a6de	0.05169595708896478
144	0x3faa37a10971358a	0.05120566597234262
145	0x3fb067c975bfdca8	0.06408366322272008
146	0x3fb58f5d941847e6	0.08421883454892018
147	0x3fb2542afda37737	0.07159680073115458
148	0x3faa61cf31b07b35	0.051527476134870666
149	0x3f52b00e0fa01a44	0.0011406075777827965
150	0x3fb55e720677f26b	0.08347237260745437
151	0x3faa26aa32076ea4	0.05107623921113927
152	0xbf8358620d16bc07	-0.009445920967520406
153	0xbfa79378a4dee5ce	-0.04604699146825518
154	0xbfb11ad75c8cd8dc	-0.06681581506277062
155	0xbfb2633d35af96b8	-0.07182676850023995
156	0xbfb1359a54f46a14	-0.06722416471567555
157	0xbfaf935beca0c539	-0.061671135554556895
158	0xbfb485ae8f4ddadc	-0.0801648235190941
159	0xbfb87d0dacf33551	-0.09565816376126192
160	0xbfb45b0dd08a089e	-0.07951437321938434
161	0xbfbc4b5ae5c38c2e	-0.11052482709378417
162	0xbfc341099583d659	-0.1504222850850734
163	0xbfbe9e78a4f8d149	-0.11960557963977182
164	0xbf8fd0accfedd44d	-0.015534734817018636
165	0x3fac6d767de675d3	0.055522635334664415
166	0xbf6ef09031c056fd	-0.003776818875858788
167	0xbfb1c7f2c8ab710f	-0.06945722006952713
168	0xbf788c58d68b8b3d	-0.005993220351885151
169	0x3facd608f1dbb122	0.05632045700426348
170	0x3fb9e3b430684298	0.101130735223942
171	0x3faf849e5bc8ce5b	0.06155867453017257
172	0x3f9be702b0579375	0.02724842263514256
173	0x3f9294712b1206a7	0.01814438653355546
174	0x3fa385286df39762	0.03812528936559435
175	0xbf90cbecbd16be7a	-0.016402911225382934
176	0xbf9a07f07ae4343b	-0.025420911312768118
177	0xbfa5c0fab5974ca0	-0.04248794047057314
178	0xbfad35a1041ebd8a	-0.057049781563701066
179	0xbfbbbf10ae775743	-0.10838417300632579
180	0xbfbaf64231ce4c9a	-0.10532010761225977
181	0xbfb50e62a62cdfa3	-0.08225075299276212
182	0xbfbc4dc0f068e003	-0.11056142682434715
183	0xbfc183b19259de5b	-0.13683147092864342
184	0xbfb769c34f4b3035	-0.09145756421929792
185	0xbfa86fe402e7a6ad	-0.0477286580606465
186	0xbfa775900439f2da	-0.045818806186593355
187	0xbfb35ba2e00ae7e3	-0.07561700792112407
188	0xbfab5b6d7e3b4839	-0.053431913050772946
189	0x3f89ab0fceaa4f91	0.012533305639671062
190	0x3fac008a65788177	0.054691624533236664
191	0x3f9ef91d0045f3e8	0.030247166768720662
192	0x3f9345f312b7d57a	0.018821523683035114
193	0x3fa2c9c3776aec5a	0.03669558365569321
194	0x3fb18688ca4aa2dc	0.06845908106573567
195	0x3fb06417ee9e6e9e	0.06402730537086618
196	0x3fac1c3367bd0ccf	0.05490265504206492
197	0x3fb0521b116907d0	0.06375283408217958
198	0x3fa1de8227c584e5	0.03490072951786675
199	0x3f9bb0e762b66fa6	0.02704202213281772
200	0xbf919564f05ec3fe	-0.01717145650008333
201	0xbf94f9e1fe42efc8	-0.020484477180374744
202	0xbf87b838f8ecb814	-0.011581845375612722
203	0xbfb0d1e645e6d69a	-0.06570281225762145
204	0xbfb7b88d2089fca6	-0.09265977901849229
205	0xbfbd875e464789e1	-0.11534680572325541
206	0xbfb51306a3b5b64a	-0.08232156273671723
207	0xbfbc3ece6e0a5753	-0.11033334909947472
208	0xbfc19dd8ee6bb0e2	-0.13762961999544304
209	0xbfb9cc969711d275	-0.1007780188391026
210	0xbfa5b0787b557a9b	-0.042361989074142424
211	0xbfae56a3b51dd47d	-0.05925475679297507
212	0xbfb3e0dc1c5f01b4	-0.07764983837751666
213	0xbfb3f373963e6488	-0.07793352525767905
214	0xbf935dfa98cc94e1	-0.018913188530082507
215	0x3fa7537c795f3dfe	0.045558824363634884
216	0x3f89126d78dcc40c	0.012242179156233511
217	0x3f97389486e0688a	0.022676773769582804
218	0x3f915b14a9704291	0.01694900783701542
219	0x3fb09753ee0dbc1d	0.06480907976013879
220	0x3fb10d097707d56e	0.06660517841358679
221	0x3fa5d5bde997c86e	0.042646345867880395
222	0x3fae4a4e472ca6b4	0.0591606580622516
223	0x3fa54b527d81690a	0.041590287991043765
224	0x3fa2816e9b27e474	0.03614373821250974
225	0xbfa140ade1748207	-0.03369658829820215
226	0x3f8dff4bac770790	0.014647093964302887
227	0xbfa781377a602a01	-0.045907720268662196
228	0xbf3a7980cc8a4322	-0.00040397066599333527
229	0x3fc1d9b8d682d21e	0.13945684885187942
230	0x3fb5f1182af92c1d	0.08571005868104505
231	0x3fbae65ef8072eae	0.10507768206951582
232	0xbf83d723eb610e31	-0.009687691326809663
233	0x3fb98b14fd52c6e6	0.09977847275402105
234	0x3fd0866b21778393	0.2582042528938981
235	0x3fb6183145f8bead	0.08630664785664051
236	0x3fb272c83ecb6207	0.07206393750255567
237	0xbf580482ea948e15	-0.0014659193496492408
238	0x3fcb4a1f623566ca	0.21319954200116903
239	0x3fd1462f6e8656bb	0.26990876954492266
240	0xbf7153393e21b67a	-0.004229758838943826
241	0xbfb22de3b335e4e2	-0.0710127174878781
242	0xbfa2a3edc2811afc	-0.03640692710228241
243	0x3fc02a299afe8d15	0.12628669803698558
244	0x3f9d941d2227a639	0.0288853218170628
245	0x3f923d895bb46abf	0.017812868330205896
246	0xbfb7da0dc1622ffa	-0.09317098590162223
247	0x3f909dc47f4c1cca	0.016226835507976024
248	0x3fc12f8eec5889a5	0.1342638639481041
249	0xbfb712c08a74b365	-0.09012988453168942
250	0xbf87ac34788d5e2c	-0.01155892365356611
251	0xbfa3b2291f736f27	-0.038468632783148764
252	0xbf9380de129317da	-0.019046277888968045
253	0xbfaa32722234b737	-0.05116612117340796
254	0xbfbc3dffb02754fd	-0.11032102633119574
255	0xbfbbc7a261e088ae	-0.10851492776467594

layer3_biases f8 [16, 1]
0	0xbfa33006d2047446	-0.03747578920067744
1	0xbfa72cff26eb70e2	-0.04526517248243224
2	0xbfb3d14941b4a2b9	-0.0774122033514101
3	0xbfb5f4615774f434	-0.08576019654442818
4	0xbfb800b4e754c7b3	-0.09376078269704528
5	0xbfb2bc35c149e1db	-0.07318435639343283
6	0xbfcb2995c8e91b3a	-0.21220657644354352
7	0xbfc1857c405193ff	-0.1368861497932414
8	0xbfc1ee106ee3426b	-0.14007764257850694
9	0xbfb359f8e9954ba9	-0.07559161856379028
10	0xbfbe962ef3a57bea	-0.11947911690138793
11	0xbfb8929793e26e20	-0.09598681793652775
12	0xbfc1a8a90fbf31d1	-0.13795960682763433
13	0xbfa104bd666bff72	-0.03323928714053083
14	0xbfaa5a14c4f43294	-0.05146851448271153
15	0xbfad505b21707487	-0.0572536924666816

layer7_weights f8 [576, 120]
0	0x3f65ee741fd3dddc	0.0026771801045659526
1	0x3f9d75e8ff307808	0.028770104003449176
2	0xbf60ac4fb49163ce	-0.0020352894539823257
3	0x3f3b8a2024bd5754	0.0004202202296615849
4	0x3f8be47f8a3a0edf	0.013619419484946103
5	0x3fa66c0ccc12985f	0.04379310599442542
6	0xbfa74e0b5c54cf5c	-0.045517306347760494
7	0x3f72dced1033239e	0.004605222729147677
8	0xbfa94b8afae6a351	-0.04940447151904571
9	0xbf7c5d73aeb49b56	-0.006925060162109661
10	0x3f94c28ddd5addca	0.020273415217813263
11	0x3f8df89e7e552932	0.014634359579436127
12	0xbf8e755bd9cd4e08	-0.014872281631745046
13	0xbf9c94512cf31e85	-0.027909534805785192
14	0xbfad07083d663869	-0.05669427632811692
15	0xbf746ccdd01bfca5	-0.004986576039072298
16	0x3f9e56d763ed18fc	0.02962814853096861
17	0x3f8af0c86c00789c	0.013154569431261635
18	0x3fa159d2ba09de21	0.03388842125871983
19	0xbf4598f98d445900	-0.0006591051592604036
20	0x3f91a1b1bd07ad7a	0.017218377268290543
21	0x3fa88aed579a3fb0	0.047934929793995606
22	0x3fb6905fc6902ec3	0.08814047429785447
23	0x3fa1e5d017a42096	0.03495645798290174
24	0xbfb445cc2f914382	-0.0791900268680035
25	0xbf84cf19358bdb16	-0.010160633989909889
26	0xbf84fb7e73c965b8	-0.010245311649827879
27	0x3f94d4dd38e15677	0.020343262287801225
28	0xbfab04e05cb47381	-0.05277157909060915
29	0xbfa525e78dd15849	-0.04130481344388721
30	0x3f8ae19d22be0765	0.013125636694670548
31	0xbf9c4c2b4530a80f	-0.02763431176951064
32	0xbfa002dcd6f17362	-0.03127184032266574
33	0x3fa10e49417cf638	0.033312119716793764
34	0xbf9f1206e8297187	-0.030342204971348898
35	0xbf95a1b4b69819ff	-0.02112467159715869
36	0x3f84dd97b7f80976	0.010188279439721209
37	0x3fa8ff85b74ab3d3	0.048824480652320944
38	0xbfa28f2e69262c9c	-0.03624863656576702
39	0xbf9fd263eed7deab	-0.031076013043245847
40	0x3fb8c3b3adda02e9	0.09673617357658383
41	0xbf8ac44b8e76a666	-0.013069715771808887
42	0xbf6690a81fd7e17c	-0.002754524581856708
43	0xbf9a17023ab7c593	-0.02547839625726096
44	0x3fb4c6a25975bf4e	0.08115591701584643
45	0xbfa34221da26a1d5	-0.03761392391180932
46	0x3f9ff8b08cea039e	0.031222113228526298
47	0x3fb068d557355376	0.06409963015660289
48	0xbfae0dbbe81b59d9	-0.05869853218398519
49	0xbf94b6acc2f89605	-0.020228099250877225
50	0xbf823999a24b87ac	-0.008898926034308939
51	0xbf52f8744a900a5d	-0.001157868924793213
52	0x3faefe1b9c49fb3c	0.06053243906807501
53	0x3f9f5ffa2624d7f2	0.030639561250801202
54	0x3f578d7492d766ae	0.0014375341810279152
55	0x3fa517b330b6edbe	0.04119644136104793
56	0xbf81ee2d9c33012e	-0.00875507004673234
57	0xbfb0c4faabfa4bff	-0.06550566385912758
58	0xbf8c024065bb6f8e	-0.013676169495219683
59	0x3fa04fbe698077c9	0.031858396891251646
60	0xbfa059d81a611334	-0.031935456485859964
61	0x3f84121030094502	0.009800077882717865
62	0x3f8f3ae4ca112a7e	0.015249049584004522
63	0x3f9d3342ce36f62e	0.028515857540460647
64	0xbfad5a545b6c319f	-0.05732978454588821
65	0xbfa969e10b1f7a41	-0.049635918243201356
66	0x3f94ce595271db25	0.020318408638981062
67	0xbf91ba1a2377f622	-0.0173114856861415
68	0x3fb1989d5b2e86fc	0.06873496509663463
69	0x3f90053ba6fd3987	0.015644962374886908
70	0x3fb5b6142dd0c339	0.08480955236951794
71	0x3fa623a5c2db46eb	0.0432407188760758
72	0x3fb40f8d50da71d9	0.07836230491597664
73	0xbf80d84081d9abf1	-0.008224967920986233
74	0x3f8384602a56f2f1	0.00952983025751439
75	0x3fa101c882885067	0.03321673005498909
76	0xbf965cca4424f328	-0.021838341149521018
77	0xbf881ece2a148f86	-0.011777506503285694
78	0xbf99aaac13f96223	-0.025065125197530357
79	0x3fa63845b40645b2	0.04339807341160497
80	0xbf938e466f965b46	-0.0190974240882398
81	0xbf94ae9e2ade2fc3	-0.020197364202928513
82	0x3f8e03aa3a1d7cb4	0.014655427835974379
83	0x3fb09ee27fdb235d	0.06492438909039096
84	0xbf8a120022b97f38	-0.012729645786009422
85	0xbfa0a6dc5764f7ac	-0.03252304617716048
86	0x3f9cb239b36b7fa2	0.028023625923082947
87	0xbf85f762723960c7	-0.010725754843562986
88	0xbfb465b14147500a	-0.07967670291628806
89	0x3f9db884a6c9c350	0.02902419345849988
90	0x3fa62a5e13fa8ae1	0.043291988314441594
91	0x3f9231ae9396e89b	0.017767646558902155
92	0x3fa812c085477cff	0.04701806666320784
93	0xbfa1b74896f4c5a7	-0.03460146754003839
94	0xbfa7e90eefcd1859	-0.04669996907482305
95	0x3fbadfaaae4e9a2f	0.10497538333456967
96	0xbfb3d7119f09dfe4	-0.0775004399564519
97	0x3fb322d84f29f878	0.07475044186318935
98	0xbf988bcd814b9289	-0.023970805183938047
99	0x3f8bd443ec986cf3	0.013588457734889014
100	0x3fb131b39d699791	0.06716463654592376
101	0x3f93778c1124c5bd	0.01901072363506783
102	0x3f94b63969a55748	0.020226380417930373
103	0xbfa8f8552e2f1f5d	-0.048769628417686596
104	0x3fbb8f1f1253136d	0.1076526088464342
105	0x3f8179c75545666d	0.008533055581824567
106	0x3f6ef3c97eb0f01d	0.003778356117917893
107	0x3f9836518f884717	0.023644709001081923
108	0x3fa4de1a01175189	0.040757000573338927
109	0xbfb238ef3d2ea48d	-0.07118125194269194
110	0xbf7da74b24532634	-0.007239621661207663
111	0x3f9941f6368c0d7f	0.024665686682977302
112	0x3f8529557d2df748	0.01033274448650058
113	0x3f99b3b5eb3d62a6	0.025099604113480688
114	0xbf67b7ccedce6d1f	-0.0028952600973305566
115	0xbfa3dc910d55152a	-0.03879216468571152
116	0x3f9b292f12eba32d	0.026524291543782375
117	0x3f754b5e32f80779	0.005198829617713113
118	0x3fa6d13ea659f2a7	0.04456516056686626
119	0x3f9901e9e26f6158	0.024421362348080095
120	0x3f6695293d1003c5	0.0027566724243119644
121	0xbfa59f068213b4b9	-0.04222889268735614
122	0xbfab5e321da3621d	-0.05345303165239932
123	0xbf9691014faec88f	-0.022037525642823182
124	0xbf8498c57df69165	-0.010057013422575431
125	0x3f99651bb2f55e5a	0.024799759671934353
126	0xbfa631dbe39c1487	-0.04334914353788926
127	0x3f99934f8697dbff	0.024976008024136572
128	0xbfb873ff5f6d9018	-0.09551998214516322
129	0xbf9443a245827db6	-0.019789252750909113
130	0x3f918f1e2f4e9554	0.01714751399744803
131	0x3fa4783700c42470	0.03997966656067653
132	0xbf94844162bea820	-0.020035764362241193
133	0xbf9348a0a752b5e2	-0.018831739628401574
134	0xbfa0466805bc205b	-0.031787157726342406
135	0x3f902f9a6889639b	0.015806591635143624
136	0x3fb0ba918d9a3be1	0.0653468104085131
137	0xbf55002ed329655a	-0.0012817818902902318
138	0x3fa7ff8260426b7b	0.046871256113454295
139	0x3fa6833a0612cea2	0.04396992992533667
140	0x3fa29cbb04e37844	0.03635200915026407
141	0x3fb1b29a73eac9a1	0.06913152055748252
142	0x3fae3a266e1ce9e9	0.05903740018989707
143	0x3fa19ebba37f02b3	0.034414161403679165
144	0xbfa6b8c365a27c02	-0.04437838187845246
145	0xbf686ff0cd5bc2d2	-0.002983064953575678
146	0xbf813b94d9ab1918	-0.008414423840247084
147	0xbf957993ba3394ee	-0.020971592178189384
148	0xbf9f84837c44ee13	-0.03077893682460171
149	0x3f82d241c0607d0d	0.009190095599534343
150	0x3f7d9f9dda6af54e	0.007232300390282843
151	0xbfa384a2765420d9	-0.03812129682961691
152	0xbfa8ce433e52cdce	-0.048448659284442294
153	0x3fa4254b95831bdc	0.03934704017733967
154	0xbf970f0e705adeef	-0.022518373115160747
155	0x3f91cccc57c5ba2f	0.017382805688095523
156	0x3f964de5d3079243	0.02178153133890449
157	0x3fae3afe3d1dd27e	0.05904383178759519
158	0xbf82e12395a91f6f	-0.009218481068401478
159	0xbf922b0de4cdcb13	-0.017742364015656053
160	0x3fb213fa5893983b	0.07061733877671454
161	0xbf6b5557b90f9756	-0.0033365929925705346
162	0xbfa0b250485d6fdb	-0.032610424836746886
163	0xbf9197a04c1b9859	-0.01717997040295702
164	0x3faf3ae0fc2559f0	0.06099608495667386
165	0xbf89de92cc8d75d1	-0.012631556384515104
166	0x3faa30ef8566599d	0.05115459922233188
167	0x3f9d2e121e022639	0.028496058541838763
168	0xbf9ee83adfecbe12	-0.03018276206711163
169	0xbf789a7cc1880c52	-0.0060067055969766515
170	0x3f931ff315fcac85	0.018676565377216753
171	0xbf92509054f2efcd	-0.017885451493142846
172	0x3f9cccb5d287a66e	0.028124657606815644
173	0x3f92c41236c52194	0.018326077073000116
174	0x3f830e4a5b90fcbb	0.009304600638755258
175	0x3f8e7fad8f6541e3	0.01489196390016984
176	0xbfa008ed3fb9e9f0	-0.031318105725364975
177	0xbfb879116333ae51	-0.09559734985276093
178	0xbfa7458f332cdfc1	-0.045452570912345454
179	0x3fa523eff5aac73c	0.04128980516305922
180	0xbf87804bfb29ce99	-0.011475175478359122
181	0xbfa3f1d854111025	-0.03895450617031341
182	0x3f7e7400454bd89b	0.007434845979096628
183	0xbf9138f84c7eb532	-0.01681888548744332
184	0xbfad38d597a44d54	-0.0570742366418481
185	0xbfa6b7584d84317a	-0.044367560827683186
186	0x3fa3dd3116373b51	0.0387969340914568
187	0xbfa0fb52cbc5090b	-0.033167445539691164
188	0x3fac045ff3b070ef	0.05472087716791118
189	0x3f9c3887919c64a3	0.02755939317930668
190	0x3fa12eb741813ee2	0.03355953859920448
191	0x3f90199c147b65ba	0.015722693204997397
192	0x3fa572f80edfd238	0.04189276868411124
193	0x3f83322c3b58e3a4	0.009373040734418421
194	0x3fb22c1f71f22dcd	0.0709857609928612
195	0x3f8ad9aa9455f8a2	0.013110478069162494
196	0xbfa1be37ad453cfe	-0.03465436926000541
197	0xbf8f9a48dc845555	-0.015430993299143362
198	0xbf938e4c484d7863	-0.019097511208535766
199	0x3f7f2c17f8f8b449	0.0076104103496109155
200	0xbfaf990f165d8142	-0.06171462200177526
201	0xbfad0183be1a0c6c	-0.05665218062952068
202	0xbf59e557e3720eea	-0.001580558613370304
203	0x3fb0694be75b94ef	0.06410669706709247
204	0xbf728eebaa8fc22b	-0.004530830928147138
205	0xbfb2273c65a4dce3	-0.07091119271796091
206	0x3fa0260d1696f7a5	0.03154030705216763
207	0x3f798ed7e8a55c05	0.006239741700787786
208	0xbfaa2c2c0ae5160f	-0.051118255929889604
209	0x3f9844eb498ecefb	0.0237004054685732
210	0x3f99be63b5ad44c5	0.02514034077041029
211	0x3fa423db84161bf9	0.03933607089407327
212	0x3fa84670b5cac7cc	0.04741241664068205
213	0xbfa89d789a81b94f	-0.04807640920704392
214	0xbfb057381336d1b3	-0.06383085698218487
215	0x3fbc42de17986176	0.11039531780295939
216	0xbfae96c220244e53	-0.05974394457203105
217	0x3fa54511fa6ac6bc	0.04154258901452354
218	0xbfa3f1a053e551eb	-0.03895283722036765
219	0x3f9bdc7fc1259090	0.027208324588528898
220	0x3faf80361eed85cd	0.06152505042588139
221	0x3fa7a51593e76538	0.04618136816470514
222	0x3f85ab226a092b17	0.010580319271999579
223	0x3f9d8c856d5ca5c6	0.028856358337326936
224	0x3fa5fd2cabd11ac6	0.042947193120701097
225	0xbf8b0a8a2a214974	-0.013203696642595665
226	0x3fa91871fe8f1617	0.049014627765739664
227	0x3f6f77a48c9ec797	0.0038412298062775008
228	0x3fa0cf39278372fd	0.03283098800031856
229	0xbfb6b1995b2e19cc	-0.08864744640423011
230	0xbf8cd5371580eb66	-0.014078550666558786
231	0x3f66e5d22a7b86a9	0.0027951340488108945
232	0x3f9d7b47dbb27481	0.02879059103417037
233	0x3f8bf276fc6c05d5	0.013646058634097106
234	0xbfa219b1700c25ca	-0.03535227291838401
235	0xbf9e9dec46e60a0e	-0.029899303271586013
236	0x3f7712fa03d21401	0.005633331890867233
237	0xbf89b416aa40f1cf	-0.012550522871713902
238	0x3f9d976157b77a30	0.028897782305529585
239	0x3f91bb2a64f3dcec	0.01731554261365613
240	0xbfa067709052ad8a	-0.032039182298230065
241	0xbfafd6ae29039335	-0.06218475580843689
242	0xbf9803c5b3fc68a0	-0.02345189009711446
243	0xbfa39121f68ad6fa	-0.03821664938497622
244	0xbfa50e0b25ae423c	-0.04112276873559437
245	0x3f5e7b9cfd4fa5a9	0.001860526380591624
246	0xbfa175bc24be081f	-0.034101371274133145
247	0xbf831ded1ec4c8a5	-0.009334423543439671
248	0xbfafbc9aff19f086	-0.06198582042722571
249	0xbf767be2118cdd8d	-0.005489237861915253
250	0x3fa6af01dca6c6c7	0.0443039495325031
251	0x3fad3b06c7f8d198	0.057090961371076776
252	0xbfa8952838c261c5	-0.04801297848570444
253	0xbf9178e3adf9ce24	-0.017062718862190476
254	0xbfafb3dfa63f85ea	-0.06191920189281659
255	0x3fa0f1e05ab21c11	0.03309537036061994

layer7_biases f8 [1, 120]
0	0x3f825bdea03eb75e	0.008964289918221343
1	0xbf9bc396d29c7905	-0.027113300900162524
2	0xbf76dbfd5b2d1adc	-0.005580892250526683
3	0x3f8fbd674820d147	0.015497977150609755
4	0xbf75df65dde9de34	-0.0053400019811458595
5	0xbf989e5de8009681	-0.024041621480270784
6	0x3f988c6b2a2604ce	0.023973154494801467
7	0x3f49bdaf0d8e386a	0.0007855515242327752
8	0xbf904bfc2b58b34e	-0.015914859910640282
9	0x3f77b9c4004c2f66	0.005792394284764279
10	0x3f99d32a40e886c2	0.025219593249977697
11	0x3f8f2c9ad9570660	0.015221795804680471
12	0xbf945b94b5d9f352	-0.01988060340817139
13	0x3f40ef9f885ca240	0.0005168465583880802
14	0xbfafc2a96d4f1b77	-0.06203202685678993
15	0x3faa2612f37debec	0.05107173178017618
16	0x3f9550963532ab97	0.02081522655195619
17	0x3f8b099eda4b9cd0	0.013201943432660818
18	0x3f721868afa36524	0.00441780941965789
19	0x3f8ac1ba5a454b9d	0.013064819221346552
20	0xbf5b828434e9b2be	-0.0016790667611090017
21	0x3fa05631cb4407ca	0.031907611906731484
22	0x3f7db31077ebfe53	0.007250847177374081
23	0xbf92adaaeeff0378	-0.018240614735762745
24	0xbf3c14daa1dc8ba8	-0.00042848909093800647
25	0x3f684a1608377ccc	0.0029650144876850245
26	0x3fafa70720fe75fb	0.061821196343981165
27	0xbf713412d7d612a5	-0.004200051885508903
28	0xbf913a7473c084b7	-0.01682455021375936
29	0x3f8bace0366f7d25	0.01351332822917912
30	0x3f633a577e71189d	0.0023471554627888095
31	0xbf79f26b6262870c	-0.006334704847320582
32	0x3f928a48bb724aa4	0.01810563701708169
33	0xbf35267f72af43d6	-0.0003227292206107712
34	0x3f958d4d85a4a651	0.021046839982920954
35	0xbf6d1584491576ba	-0.003550299043736907
36	0x3f970c8921c93af6	0.022508757292878344
37	0x3fa02a96580d1aa0	0.031574915169177986
38	0xbf95495b6c496c75	-0.02078764770918125
39	0xbf949de4220b777e	-0.020133556917123034
40	0xbf7c772f753a2c1e	-0.0069496015381771675
41	0xbf8c2abedfc3add1	-0.013753405765291856
42	0x3f8b423acc87c354	0.013309916846056126
43	0x3f7ff46948378c46	0.007801448114579895
44	0x3f998f73dd817fc4	0.024961290735859412
45	0xbfa3b94b35d68fab	-0.03852305443004352
46	0xbf57be9e9fe8dcf8	-0.001449255854493901
47	0x3f9f8605d9a9ebcb	0.030784694109097715
48	0xbf95921380834243	-0.021065048903269334
49	0xbf99620ecfbd8d06	-0.02478812354037265
50	0xbf8e1a6bab90acf8	-0.014698830769779722
51	0xbf8d70c535b375a9	-0.014375248624157804
52	0x3f5a8dffc6806658	0.0016207692915543217
53	0x3f99c92611f43cb5	0.025181383939579322
54	0xbf8f392ac30a43e3	-0.015245756222869339
55	0x3f91334b1dcc6dea	0.016797231382140433
56	0xbf98edf7512fcb93	-0.024345268564455912
57	0xbf8a87907c9519b1	-0.01295388107486137
58	0x3f908ca3f9643092	0.01616150102295017
59	0x3f991a0ec8a8ac23	0.024513464925046812
60	0xbf826af1ba701351	-0.008993042471055953
61	0x3f909af41671fb01	0.01621610056872225
62	0x3f854ea1ac1d5206	0.010403883996027662
63	0x3f87acccb594a889	0.011560057917979332
64	0xbfa345ca68ab059e	-0.03764183547674381
65	0xbf511d444048e015	-0.0010445753588452834
66	0x3f7de2065e3c7638	0.00729563224356649
67	0x3f9b3b066b7b937c	0.02659235030195671
68	0x3f7fecfaf743b92a	0.007794361434419176
69	0xbf891d46a538c9bc	-0.012262870709581424
70	0xbf32d81230bf34a0	-0.00028753704168311446
71	0x3fa1c73b8420235d	0.03472314823017684
72	0x3f822d9af0dd86f4	0.00887604758799252
73	0xbf8b6aaf22593d8d	-0.013387077556358285
74	0x3f88400864e755ca	0.011840882853827579
75	0x3f966abc5733ee61	0.021891539404334973
76	0xbf90612aa72bb14f	-0.01599566121414969
77	0xbf905d8466be2a2e	-0.015981739779400587
78	0xbf829f7ba433c336	-0.009093252132943524
79	0x3f5358a70dfe0ba7	0.0011808043854848267
80	0xbfa0f11361277b4f	-0.03308926163639702
81	0x3f7da728fa84b427	0.0072394943929739225
82	0x3f73bb7c804668db	0.004817472774812449
83	0xbf851e8e37cfaf22	-0.010312186315750763
84	0xbf86f7b40ba875af	-0.01121464405610592
85	0xbf7d3ad8b609757a	-0.007136198547042278
86	0xbf3082354d09013b	-0.00025190163890799797
87	0xbf8a6404a15198d8	-0.012886081860596851
88	0xbf66a6ed5434d693	-0.0027651439028442775
89	0xbf85e4cd7ac58bc0	-0.010690312680429304
90	0xbf975809578d8fcb	-0.022796770066079646
91	0x3f8babcca054e43e	0.013511274950916637
92	0x3f8ff9c77106e453	0.01561313451462546
93	0xbf94d0130b58196a	-0.02032499081362841
94	0xbf663b823e039d5a	-0.002713922862415491
95	0x3f8aedc37857dd50	0.013148810491641655
96	0xbf9920b49de23dd0	-0.024538824211559007
97	0xbf7d61948c632b4c	-0.007173137919560823
98	0xbf90b699baa1cf0e	-0.016321565643422402
99	0x3f8bba687c39140f	0.01353913907144924
100	0xbf8709f8b5faa7ff	-0.011249487927972977
101	0x3fa2692fea198468	0.035958764387722664
102	0xbf81ad2488dbf999	-0.008631024767507255
103	0x3f9436a012499d4d	0.01973962890261065
104	0x3f76f15dc07bb46a	0.0056012785132511875
105	0xbf93bcb825ffb57a	-0.019274594611422093
106	0xbf292e32e69a27fc	-0.00019211169574290244
107	0xbf8bad0eed06d5a4	-0.013513676269989734
108	0x3f874e6bb8351ca3	0.01138004451662617
109	0xbfa32700679399c3	-0.037406933444617894
110	0x3f76455c797683ad	0.005437241772057994
111	0xbf719605a28efd01	-0.0042934627644506404
112	0x3f9a9ab54af75df8	0.025980789852694003
113	0xbf99f7cebabdd8be	-0.025359373233606368
114	0xbf96ca85014db233	-0.02225692577796874
115	0x3f87ce369c636df3	0.011623789451212984
116	0xbed21677e5f13200	-4.312459707622469e-06
117	0xbf895703eb479f32	-0.012372999780339098
118	0x3f827cbf530fd176	0.009026999208779012
119	0x3fa1cdc6369080db	0.034773058090878904

layer9_weights f8 [120, 84]
0	0xbfb04b92348c68ea	-0.06365312369272016
1	0xbf931dcfcca63ef2	-0.018668410173233015
2	0x3f755ab59f9c9617	0.005213460413676005
3	0xbfa714b0aea701b0	-0.04507972843157704
4	0xbfaa4a6aaf96a428	-0.05134900468267062
5	0x3fc75e15974c49af	0.1825587261924517
6	0xbfa1af1a4f936fd9	-0.034539053167207796
7	0xbfb6cf0b56c02834	-0.0890967451852312
8	0x3fa2f45796b2ecbc	0.03702043261133656
9	0xbf79557f65236e88	-0.0061850525255199365
10	0xbfb1186ec283f71e	-0.0667790627375919
11	0x3fb3b52b5cbd49f9	0.07698317541261436
12	0x3fae58178fbf580e	0.0592658389065691
13	0x3fb897c6707e1399	0.09606590505980107
14	0x3f862dfae02cdb26	0.010829887357983358
15	0x3f9eb4d841b57e05	0.029986742983394894
16	0xbfc5fd68eb4ccbab	-0.17179595460183114
17	0x3fb0d8bee2c3193f	0.06580727611717395
18	0x3f94397acebc3ebc	0.019750517719386393
19	0xbfb993f06483baee	-0.09991362050980587
20	0x3fa86ed3951e8bd9	0.047720539048235096
21	0x3fa3184f56edbe3f	0.03729484497204937
22	0x3fa91829c3deca6c	0.04901247516626914
23	0x3fc6403b82bbc33a	0.17383521922558903
24	0x3fac4eff85211ef6	0.055290207863945826
25	0x3fa74eb407036981	0.04552233300792619
26	0xbf9332e9fcb3854d	-0.01874890904298825
27	0xbfc04716a7770c0a	-0.12716944863322538
28	0xbfb40f17dcbe2bff	-0.07835530413846924
29	0x3f89836c2f5d57e7	0.012457699962094849
30	0x3f99d94c2966a12d	0.025242986704740723
31	0xbfadfc510ebae0aa	-0.058565648124785
32	0x3fb860aa9b7ecfac	0.09522501274369571
33	0x3fb1ab2933afaead	0.06901795875426826
34	0x3fbdf457bd2e99fd	0.11700962418272094
35	0x3f99137a321021bb	0.024488362603763508
36	0x3f9548f7485e407d	0.02078615550232187
37	0x3fc72b0e166694e5	0.1810014352205719
38	0x3f90f6c8252dac44	0.01656639792365079
39	0xbfb8d8e364f7ead4	-0.09705945220040785
40	0xbfac406eddd19e3f	-0.05517908532857207
41	0x3f99ff3fbd1af563	0.025387760083267163
42	0xbfc52b75c9608e28	-0.16538879711980425
43	0xbfc154410e5608bf	-0.13538373184207406
44	0xbfa79bbcb4a83a94	-0.046110055020212176
45	0xbfac81331e01b255	-0.055673215306204206
46	0xbf919192ea6eef2e	-0.01715688281886612
47	0x3fa3157f8e6ff0f2	0.03727339376198015
48	0x3f96e943aca5ccfc	0.02237420789010701
49	0x3fbdd9e4419b4e83	0.11660601236081373
50	0x3f9dffcd415df2b5	0.029296118845638392
51	0x3fa41b5cbbbce48a	0.03927125732156707
52	0xbfafe96fa9963e2c	-0.062327851726078215
53	0x3fc8fa3f06d22919	0.19513690789273921
54	0xbf965057f8c25460	-0.021790861661959204
55	0x3fa82bda57bfe241	0.04720957108651592
56	0x3fa0499b691b6b0e	0.03181157739682848
57	0xbfb333cccb5546ee	-0.07500915493190138
58	0xbfb3a9cf196ee018	-0.07680982943463766
59	0xbfc742b3704635f9	-0.18172305090085653
60	0xbfb339fd8e0f783a	-0.07510361402771162
61	0x3fb7e5c8f47c50b3	0.09334999054800867
62	0x3faecd0f26c76bdc	0.060158227428210614
63	0x3fb6c71745bd0b11	0.08897538616751556
64	0xbf72f24e8c29509f	-0.004625613046830206
65	0xbf9646235fe3b30f	-0.021751930930736182
66	0x3f95f11fcf35fc26	0.0214276285382732
67	0xbfa0f05b8da43932	-0.03308378318807782
68	0x3f88540788beb755	0.011879023419023286
69	0xbf550127feb1b2c0	-0.0012820139479813725
70	0x3fa999c469b4835e	0.05000127592416591
71	0x3fb1baa6fe088fcb	0.06925433828342802
72	0x3fb555b14698cfaa	0.08333881352956377
73	0x3fb9aa2a6bcb8ff2	0.10025277263372326
74	0xbfaa84dca30c3687	-0.05179490557030158
75	0x3fb0a99900cd0356	0.0650878550486714
76	0xbfc42d8a2d34dcb2	-0.15763976294849652
77	0xbf9550981dc260cf	-0.020815254989970108
78	0xbfb7104cea3285c9	-0.09009247510632358
79	0xbf9422135e28bca0	-0.01966123830987654
80	0xbf9020c54e67e4cc	-0.01575001040507544
81	0xbfb878ffda6ea949	-0.09559630472964388
82	0x3faffe4925abf07d	0.0624869211660277
83	0xbfb9445fa7de352e	-0.09869954918231791
84	0xbf66bd75c1be6e5d	-0.0027758884370550478
85	0x3fc010211245f865	0.12549222366573357
86	0x3fc881bc3fc1d058	0.19145920861376697
87	0xbfbc29974f079137	-0.1100096290534268
88	0xbfb38a0537495bad	-0.07632477378625309
89	0x3f8194eac0be8a75	0.008584817893113364
90	0xbfb0076791fbb0c8	-0.06261298479120392
91	0xbfb42bb36475058f	-0.07879182055059729
92	0x3fb0b9417c535b5d	0.06532677922528536
93	0x3fa22e8874c14625	0.0355112688563504
94	0xbfbe31f2f336d728	-0.11794966161582165
95	0x3fa31ebc357f4405	0.037343865900432184
96	0x3fc05db022d24933	0.1278591318155776
97	0x3f593064af9ccb28	0.0015374167691787986
98	0xbfc671c08f7c01aa	-0.17534644132684934
99	0x3fc3a7b0b06972f4	0.15355499853003318
100	0x3fb28c795e174673	0.07245596453801699
101	0x3f9344fc70578900	0.018817848545844562
102	0xbfa846bbe90065a3	-0.04741465777642453
103	0xbfb21a0d30f61659	-0.07071001477569307
104	0x3fbad714181df6b0	0.10484433735652021
105	0x3f972351c33e452f	0.02259567026300607
106	0xbf817fac38809070	-0.008544297670660422
107	0xbfb138d8c19ce341	-0.06727366186977425
108	0x3fc07443ce6c9785	0.12854812220865255
109	0x3fbe4a9f89ecc47f	0.11832615964228131
110	0xbfa726505fc3640f	-0.04521418732628756
111	0xbfb01f4671d928f5	-0.06297722129344037
112	0x3fbbc34bdc495372	0.10844873550497683
113	0xbf941cfd58455551	-0.019641836655258264
114	0x3fc7bbeca534f093	0.18542249743211822
115	0x3fac4ff31ca58626	0.05529746746720958
116	0xbfc17d524e1c4e33	-0.13663700880043592
117	0x3fbe48a3d0dd0aad	0.11829589699940853
118	0x3fb8a0753e46ae48	0.09619839449322243
119	0x3fa923aea5168a01	0.049100358631466896
120	0x3fb438bbde0fc7cf	0.07899068995882817
121	0xbfb6c0f9b3c567e6	-0.08888207091277386
122	0xbf4fbc3e9e168d60	-0.0009684854268709291
123	0xbfa7442cd43dca17	-0.04544200983845686
124	0x3faca388a8412ed1	0.055935164011854284
125	0x3fb3dec3d21b3729	0.0776178729967937
126	0x3fb331326c0fd863	0.07496943605642196
127	0xbfac6e7f1f6916c4	-0.055530521950044626
128	0xbfc2af997d1f4328	-0.14598387345770303
129	0xbfb398f54490de70	-0.07655270503971123
130	0x3fb106d0e1c6349a	0.06651025306764993
131	0x3fc679d73bc488d7	0.1755932847818886
132	0x3faeefeabd16bc02	0.06042417104924171
133	0xbfabafdc28d6f0b5	-0.05407608030825043
134	0x3fc39945bf752c0e	0.15311500404854467
135	0xbf917530ddb1aaf9	-0.017048610240105486
136	0xbfbdc0cb3482db2d	-0.11622304946909585
137	0xbfa6fd2f830283c6	-0.0449004027771092
138	0xbfb6b2859dac167b	-0.08866152858180414
139	0xbf47d8070243a8ad	-0.000727656767165704
140	0x3fa84cd6c261742b	0.04746123431025525
141	0xbfa38223e99193db	-0.038102266561317065
142	0x3fb2a35f5bffad14	0.07280536647856578
143	0x3fa532f23ecac263	0.04140431419853454
144	0xbf80ccc35449a1b2	-0.008203054437402855
145	0xbfb597bf1dcb54df	-0.08434671857260721
146	0xbfbe6215c2c03cfd	-0.11868415836964981
147	0x3fbc818017127401	0.11135101855548159
148	0x3fa5ff0ea2662c5d	0.04296155674372735
149	0x3f747ff0993cf2e7	0.005004825437762795
150	0x3fbfbcd418cf16a3	0.12397504430472366
151	0xbfb8bf59a806c7e5	-0.09666977264603778
152	0xbf8145d87595dc63	-0.008434001053258372
153	0x3fb3e591f7da9b3f	0.0777217130767953
154	0x3fba597fab1c5f2b	0.102928141856293
155	0x3fac0aadf59d269e	0.05476897834030335
156	0xbfb40c46462b1204	-0.07831229413120161
157	0xbfb435b3eccb004b	-0.07894444018438766
158	0x3f7939d097aae9a2	0.006158652128471694
159	0x3fa134bc9b03b9c8	0.033605474398303026
160	0xbfb59fcf6f5e3f99	-0.0844697615523259
161	0xbf7f6f0cd1ebc1d6	-0.007674264982356202
162	0x3f7530e0b36af4df	0.005173566568086956
163	0xbfa482164d968360	-0.04005498597258028
164	0xbfae50bcc4c61085	-0.059209727306581285
165	0xbfb058e4f2ac6527	-0.06385641979831701
166	0xbfb3b63120b88870	-0.07699877785538134
167	0xbfb634e207fbe373	-0.08674442953987498
168	0x3fa2b9b5b6954644	0.03657310346410417
169	0x3fc009c21e788f6e	0.12529779899443433
170	0x3fcca9b907924055	0.22392952794735047
171	0x3f594557b307b416	0.0015424114645796786
172	0xbfb1c967f0ef3feb	-0.06947946197692516
173	0xbf9337fb7befe581	-0.018768243255157472
174	0xbfa52b966a582640	-0.04134817169331173
175	0xbf9ef43eab7bf7d5	-0.030228594986503616
176	0x3fb755b9441ab229	0.09115178978635953
177	0xbf81323485371a89	-0.008396539988905676
178	0xbfc21b7aef929f96	-0.14146362970245424
179	0x3fb63c205df58639	0.08685495656893573
180	0x3fbaa88e30fe406a	0.1041344518291695
181	0xbf72b38438883ab8	-0.004565731513607112
182	0xbfc73bdea9589a58	-0.18151458042958057
183	0x3fbb2718193012eb	0.10606527914940116
184	0x3fa3a37a463ae832	0.038356610367785385
185	0xbf85885f75434128	-0.010514016882013325
186	0xbfa6869b106bd1d9	-0.04399571013883347
187	0xbfa71a9b0c4b7a2e	-0.04512486004908954
188	0x3fba3bb7f7835148	0.10247373383328295
189	0x3fb04493db0ee8bc	0.06354641054250271
190	0x3fab97be6aa9d390	0.05389208843272464
191	0xbfb589aef4d2244c	-0.08413213231155331
192	0x3fbb8452717c63e4	0.10748782416011654
193	0x3faa45697c6f6c4c	0.051310821952676194
194	0xbfb7cd497a47a7da	-0.09297618136739008
195	0xbf9fb2bca6f6ad68	-0.030955264750145345
196	0x3fc04af23a18c3e8	0.1272871764827237
197	0x3faaf9337e5ce01c	0.05268250386728843
198	0x3fc69e0715b3cc39	0.17669762191471408
199	0x3f9b74a45204df45	0.026812140947384284
200	0xbfb20fdcc5001bc3	-0.07055454072552352
201	0x3faee7d90c9da002	0.06036260870934031
202	0x3fb7d0783907a7a0	0.09302474396068172
203	0xbf83b2ccc9d86a27	-0.009618377599555817
204	0xbf9524bf99d2691f	-0.020647996676964483
205	0xbfb623aab26fd35c	-0.0864817319523587
206	0x3f85f010fefc0cfb	0.010711796552192334
207	0xbfc01a4401e4f59e	-0.12580156414507554
208	0x3fc1fc2ff332e7bc	0.14050864577239774
209	0x3fbba4cb7a4bc94e	0.10798331962340521
210	0x3fb0f87208fbfd1d	0.06629097670883195
211	0xbfbdd9867e20c1d3	-0.11660042361541594
212	0xbfb14fce53ddda05	-0.06762399241947754
213	0xbfb586d784388fdf	-0.08408877351808951
214	0x3fac16e6a71ba505	0.05486222066776673
215	0x3fb7a6f46562c4b7	0.09239127612342456
216	0x3fb77b2cf60cadc4	0.09172326094692723
217	0xbf99ffb0205a03e8	-0.02538943479021674
218	0x3fbf0bebe4068388	0.12127565686252073
219	0xbfb5335fa666cc14	-0.0828151494268215
220	0xbfbb8c626942185f	-0.1076108462312688
221	0xbfa454211bc65a97	-0.03970435585067838
222	0xbfb94367f0104e39	-0.09868478403978366
223	0x3fb02f01bad0c999	0.06321726618697311
224	0x3fbab90a61d04c7d	0.10438599479702933
225	0xbfc056b3ec8d69cb	-0.1276459603348726
226	0x3faa0eafb302bc41	0.050893297769441855
227	0x3fb1e331b1dbb878	0.06987295715564013
228	0x3f91a2e543973712	0.01722295975724026
229	0xbfb477bc18cb316c	-0.07995200734439373
230	0xbfc0fe88076e07a2	-0.132767680766901
231	0x3fb7a0cbbe9aed8b	0.0922973003716178
232	0xbf5d3295553a9c28	-0.0017820795373297924
233	0xbfaec0751b512654	-0.06006208380183567
234	0x3fb31b560c2d2e35	0.07463586613919733
235	0x3fa5a15326b7d7b7	0.04224643561967361
236	0x3f6927f84bbc834c	0.0030708169487216105
237	0x3fa0ac1dacb6fc72	0.03256314023337205
238	0x3f7a45f8ca750286	0.006414386595964166
239	0x3fa0a66599cc90ac	0.032519507431318345
240	0xbfa5464f5bed4f87	-0.041552047702366805
241	0xbfa8ad5d5617dee4	-0.048197666892461105
242	0xbfa465143bc688c3	-0.039833671852890905
243	0x3f93bf8ee32903e8	0.01928542386508872
244	0xbfa78cf5a8dee450	-0.04599731146249353
245	0x3f6cd1f8130acb1a	0.003518089790611423
246	0xbfb234be9dd72e0f	-0.07111731866387337
247	0xbfa91c1f1c8a303d	-0.04904267524133885
248	0xbfb5237c313c7934	-0.08257271005684147
249	0xbfb0e41a30d611f2	-0.06598056499758068
250	0xbfc37083e67a39e5	-0.1518711924913553
251	0xbfb1c34f942815cc	-0.06938645712951724
252	0x3fb472ad8d651379	0.07987484647772004
253	0xbfb4c385eeb1a582	-0.08110844686020438
254	0xbfa2a7199f555248	-0.0364311224936143
255	0xbfb89042e80067f3	-0.0959512535486338

layer9_biases f8 [1, 84]
0	0x3f91674f56a244f3	0.016995658552848302
1	0xbf971bcd6a7594ad	-0.02256699526096344
2	0x3fb17a2ef2ca3d8c	0.06827062060823702
3	0xbf64e34b771d0235	-0.0025497888499617324
4	0xbfa52788e44a0618	-0.04131725107891898
5	0xbf82776457f62f08	-0.009016784605385478
6	0xbf9af427d837eaf3	-0.026322004863668046
7	0x3fa56d7d5df2d36f	0.04185096523125408
8	0x3fa6f49b3741ac4e	0.044834948058302446
9	0x3f925e364f35fbb3	0.01793751581635279
10	0xbfac5e144bf5de37	-0.055405267975342225
11	0xbf9b58d72a39ff88	-0.026706087066940692
12	0x3fabc0b1af11cb52	0.054204514141835816
13	0xbf834439a608a1cb	-0.009407472972342476
14	0x3f561756e76c1f7e	0.0013483380004703778
15	0x3f4ae47fdb99de43	0.000820696287703045
16	0x3fa2c853b12cda8b	0.036684623124917236
17	0xbf93538ad75e2232	-0.01887337626934222
18	0xbf8653d27ceb0311	-0.010902065694041537
19	0x3f61090000c22a38	0.002079486852442327
20	0x3fa6a6a3db585503	0.04424011280586095
21	0xbf7736bea19350fe	-0.0056674429444749635
22	0x3fad0b10a675f079	0.05672504455557798
23	0xbf9071b544d9874b	-0.016058761908772905
24	0x3faac70b1c2034ea	0.052299830611539935
25	0xbf463d5ec89486a4	-0.0006787026224268256
26	0x3f92bfb1b4fe280c	0.018309380218433133
27	0x3fa8aebec1187b3a	0.048208199568981105
28	0x3f9e22815128a895	0.02942850168089047
29	0xbfadcff6e36d969b	-0.05822726751538917
30	0x3fa74bded8836230	0.04550072091086965
31	0x3f696856e573ac01	0.0031015107339178454
32	0xbf9ae8dfad37b6f8	-0.026278967807164627
33	0xbf31dd60320d5d48	-0.000272594437821867
34	0xbf8933ce15b95237	-0.012305841482125419
35	0x3fb18ab2f2cbb785	0.0685226290476902
36	0xbf961f02cc293e15	-0.02160267230129705
37	0xbf8b19401bc52872	-0.013231755111196206
38	0x3fb0d4f278024e8d	0.06574931554706094
39	0x3fa6dae6d928945d	0.04463883782253995
40	0x3f9b89dff1d9d7ff	0.026893138061915064
41	0xbf95aa20e02872ee	-0.021156800920027523
42	0x3f961378578df97c	0.02155864748373791
43	0x3fa004faebe83a59	0.031287995621927585
44	0xbfa2338a363c735a	-0.03554946815550038
45	0xbfa78e9d006c6ed0	-0.046009928037361925
46	0x3f73b93f84937d17	0.004815338246060528
47	0x3fb02017af1f2099	0.06298969293050262
48	0xbf9707ab822bfd81	-0.022490196056421666
49	0xbf9650a22993c9bc	-0.021791967189480607
50	0x3fa7a9a52c58bef0	0.04621616522160632
51	0xbf96f854a7abe61d	-0.022431681379179936
52	0xbfa697a5eaab0136	-0.044125733276361975
53	0xbfa0bd4e4c2e5571	-0.0326942890161871
54	0xbfa7b5044a65c800	-0.04630292328046437
55	0x3f6fcf85d31866a5	0.003883134246973468
56	0xbf7c25998c48bb43	-0.0068717954605251345
57	0x3f9c9de5137e9b49	0.027946070971349077
58	0x3fa0b7d6ae01a46b	0.03265257715322253
59	0x3f519956feb70808	0.0010741567192416052
60	0x3fb5033f897ef05d	0.0820808134730568
61	0x3f9202e40032daa5	0.017589151870846326
62	0x3fad33c9fc9c4809	0.057035743795623324
63	0xbfa377d14756fdc2	-0.038023509939644665
64	0x3fa625b2c65d4c67	0.0432563655037022
65	0xbf7b2da0474f7133	-0.006635309303387782
66	0x3f6dd397f1787cc9	0.0036409347192286373
67	0xbf920a7dbb0d5ace	-0.01761814550567458
68	0xbf9e717d65c84e8f	-0.029729804360683117
69	0xbf8a4502a59e776a	-0.012826939276972833
70	0xbf9a7507bec83f60	-0.02583705999319308
71	0xbf87da2b39a9b145	-0.011646592805128928
72	0xbf949144018c117e	-0.02008539447253232
73	0xbf926f0fc45c845e	-0.018001791343639766
74	0xbf96343070962371	-0.021683461066945357
75	0xbfadf91a00c9d36b	-0.0585411191904431
76	0x3f64507cb7e254dc	0.0024797855285877256
77	0xbfacf2a421c720e8	-0.05653870498969288
78	0x3faab69a5433a6f6	0.052174399164710936
79	0xbfab879bacbaac0d	-0.05376898273001283
80	0xbfa53f600a2398c7	-0.04149913905875873
81	0xbfa08f417324db98	-0.03234295397344694
82	0x3f76f2027bfa41ff	0.005601892189261991
83	0x3f9f887d210dc319	0.03079410089725618
