results/lenet5_weights.npz (npz, 665224 bytes, 10 tensors)

layer0_weights f8 [6, 1, 5, 5]
0.04954605487140689 0.045640954198162546 0.06210384032169532 0.045649757310677504 0.033705618750497046 0.07647962047824426 0.06951307808255544 0.06476139212841388
0.0627762346680177 0.062124802018457805 0.08689235930116594 0.06903090105010984 0.059610913710866034 0.06884111222825119 0.054049297588579105 0.042477010334215026
0.058289614846836355 0.05887380722190575 0.05318149275284073 0.050270692989088886 0.047631428054425905 0.02263876631852191 0.036712051051482314 0.0336359748080678
0.02929614946996419 0.06866172962821782 0.029016431450889356 0.02130983705034868 0.014177601682080147 0.0021515021945831382 0.07848249765114952 0.048906415374226575
0.058932529954177096 0.05417480393796742 0.042901498254757385 0.09088041336958876 0.07106583089813463 0.07078200278696105 0.07657369918622421 0.08897384683899148
0.07894969458728655 0.050697442718056256 0.0677592099257393 0.0644625267807101 0.07337182659947565 0.019670541564572413 0.0204231105893625 0.041074441951486365
0.03828223419446437 0.06104983213416434 0.030543672568955637 0.053231308971729334 0.06776350969792189 0.0536262572171686 0.045812172046150526 0.053429059823100096
0.0836071582870453 0.08046199633513215 0.08547639476430584 0.0844946069368106 0.014131516692486246 0.05461679975117614 0.05932952732307506 0.08353668387360896
0.08424274081932039 -0.02233323229266515 0.014344908965912541 0.032252886353568475 0.05654244097734022 0.07318823393459924 -0.07779413170379944 -0.020160961886214537
0.020869342748080458 0.02950062115612102 0.06455033245397676 0.05615825807069642 0.06904471718235176 0.05100430587589828 0.035063640593875095 0.05913746587934957
0.04608639464655567 0.08008852731747138 0.06501449297044333 0.0832326574575475 0.07593930951018263 0.03059850037037779 0.042091831423855836 0.06237176859356314
0.057836364807980524 0.06510816056319903 0.047390998350845516 0.06317324376019409 0.05110409347700355 0.05457203230921812 0.07234529486244747 0.033311379345624136
0.032473890873561166 0.02756676040726175 0.0504492718863238 0.04386386733711373 -0.029780728232752445 -0.049635566625920766 -0.052392807066714696 -0.08012796441548167
-0.06099958773153183 -0.029587747518432454 -0.06505064857615969 -0.07986441683120481 -0.11468876380199887 -0.0980699960014639 -0.05853069029619567 -0.0647870085572518
-0.10925112494974248 -0.10474052963231618 -0.07489412941630923 -0.048402766633371085 -0.08314555551210062 -0.08073787767896477 -0.10123194931882121 -0.07241648371531623
-0.04505744428268108 -0.058824416195515476 -0.0705822933891306 -0.04819599427069202 -0.009528502686258796 0.0618871875563729 0.05771446834089273 0.04352607310345861
0.00853157890990185 -0.030584517573484477 0.07099365309032674 0.0796969088005885 0.08572542484800963 0.033058039312511535 -0.019264214880253018 0.09909401835091054
0.06987633180295558 0.05876465645577412 -0.017633313254035284 -0.028481151050656236 0.07207256210492435 0.05461642335449853 0.021107746589847667 -0.04761114846345942
-0.039882098465468356 0.042043943508434836 0.04111917295923397 -0.008769866458863096 -0.04736621288051269 -0.0551923850654498
00000000: 4714 a3ba 195e a93f d757 474b 405e a73f
00000010: fa7e 4616 13cc af3f 197c 70ad 675f a73f
00000020: d01c 73e4 dc41 a13f 9db9 c31c 2b94 b33f
00000030: 4e45 02ed 9bcb b13f f526 3cdd 3394 b03f
00000040: f57a dd72 1a12 b03f 0d27 e171 d2ce af3f
00000050: a385 78e1 933e b63f 4473 6c56 02ac b13f
00000060: e2e5 be59 5285 ae3f a9fe a335 929f b13f
00000070: 3d89 077b 59ac ab3f f042 6ff4 8bbf a53f
00000080: be5c edea 22d8 ad3f 25db 3729 b524 ae3f
00000090: 8877 40c8 9a3a ab3f aab8 ab8c 14bd a93f
000000a0: a3d5 8283 2563 a83f c1df d6e3 9d2e 973f
000000b0: cc38 4505 eccb a23f 311a 8a07 bc38 a13f
000000c0: 4528 7d4f cfff 9d3f f86f 3dab d093 b13f
000000d0: b645 83c0 7bb6 9d3f 147b dbf4 3ed2 953f
000000e0: bc63 7b7c 2509 8d3f da26 04f2 06a0 613f
000000f0: 6d57 b8d0 6d17 b43f 309c 31fd 420a a93f
00000100: 12c0 a591 672c ae3f 788f 5cc6 ccbc ab3f
00000110: 2b3c e867 2ff7 a53f c9f3 4453 f043 b73f
00000120: dd0f 92cb 5e31 b23f 7389 1df3 c41e b23f
00000130: 3d13 bd7d 559a b33f 9a6e 5f72 fdc6 b63f
00000140: e315 4814 0c36 b43f 6705 eee4 03f5 a93f
00000150: ec43 a2e6 aa58 b13f 6a36 57bc 9d80 b03f
00000160: b349 b1fb 7ec8 b23f 0b98 dbb2 8324 943f
00000170: d96f 41c0 cbe9 943f a223 c491 b507 a53f
00000180: 791d c49f ba99 a33f bb92 e270 ec41 af3f
00000190: c332 222b d746 9f3f 7f4e 5056 2241 ab3f
000001a0: e0c6 030a f358 b13f 5cc4 e899 e674 ab3f
000001b0: 92d5 6469 b174 a73f b146 31c1 0d5b ab3f
000001c0: 35ea 8d5a 4767 b53f 368c d44a 2899 b43f
000001d0: d3b9 17f0 c7e1 b53f cc62 7b45 70a1 b53f
000001e0: 80fe 4b10 fcf0 8c3f bca9 7cb1 bbf6 ab3f
000001f0: 9059 1497 7060 ae3f 84e1 40fd a862 b53f
00000200: 0990 bea8 ee90 b53f 606e 3ed9 85de 96bf
00000210: b445 fb16 dd60 8d3f 3e2c 2e48 7383 a03f
00000220: f6d8 aa7d 21f3 ac3f 5d7b 33cf 76bc b23f
00000230: a710 7df3 50ea b3bf a42a d43f 13a5 94bf
00000240: 943a 5ee2 c55e 953f 3314 4f2c 6935 9e3f
00000250: 36f4 d5de 5e86 b03f 91c0 a073 c6c0 ac3f
00000260: 4b80 4222 eaac b13f 4963 6283 3c1d aa3f
00000270: 9c3f 428b dcf3 a13f 451a d713 4447 ae3f
00000280: b852 98cb a298 a73f fe03 9d85 ae80 b43f
00000290: a5f6 1231 caa4 b03f 3145 bd45 bc4e b53f
000002a0: f4b9 d332 c270 b33f 5af4 9699 3655 9f3f
000002b0: 5cd5 c97e 0f8d a53f 3827 9b44 31ef af3f
000002c0: a556 bd5e ba9c ad3f 1958 52ac edaa b03f
000002d0: f555 1508 a243 a83f 3aa9 ee27 1f2c b03f
000002e0: 86d5 59d4 502a aa3f adb4 168c ddf0 ab3f
000002f0: f124 74a3 3885 b23f c38a bf69 300e a13f
00000300: 0738 8df6 6aa0 a03f f198 9ff9 753a 9c3f
00000310: 17b1 b7a9 7cd4 a93f c8c2 6027 5375 a63f
00000320: 7b31 3ed7 d67e 9ebf 86e6 c03e d569 a9bf
00000330: d35a cbe1 3ad3 aabf fad7 a82a 4483 b4bf
00000340: 14b9 c084 563b afbf 2ede d01f 404c 9ebf
00000350: 9edb 37c8 28a7 b0bf 7f75 6792 fe71 b4bf
00000360: 8f8d bf29 3e5c bdbf 2e8e 8b81 1d1b b9bf
00000370: 97d8 4411 bcf7 adbf 8585 f5a2 e195 b0bf
00000380: bcd9 b5b8 e1f7 bbbf f925 567d 46d0 babf
00000390: 7f64 81fc 422c b3bf e3d6 7357 3fc8 a8bf
000003a0: 1473 bbf1 0649 b5bf 67fa 2dd0 3cab b4bf
000003b0: 8279 a247 56ea b9bf 3ca4 3ffd e289 b2bf
000003c0: ad5a 45f3 c411 a7bf 4f35 88df 3b1e aebf
000003d0: 3972 c861 ae11 b2bf e5b3 6136 25ad a8bf
000003e0: f1b0 56fb ad83 83bf 202c 316d adaf af3f
000003f0: 5971 0f34 c08c ad3f a55c 01a9 0c49 a63f
00000400: facd 3523 0179 813f c5dc f73a 8c51 9fbf
00000410: 1c1c 3fda a32c b23f ec0c e440 0467 b43f
00000420: 9a6c 28f8 19f2 b53f 452a 6fbb fbec a03f
00000430: 2a41 9393 ffb9 93bf dddf 0bc0 395e b93f
00000440: feae db4f 6ae3 b13f 71c5 46ab 6616 ae3f
00000450: 221d fc9e 770e 92bf 8f90 42b1 292a 9dbf
00000460: e4f8 2df1 5873 b23f 9b9d 4310 aff6 ab3f
00000470: 34bf 2ee5 449d 953f a7af 260b 7d60 a8bf
00000480: 97c7 3529 6d6b a4bf aa29 baa4 c886 a53f
00000490: a36b 327e 920d a53f 6d80 0c8d eff5 81bf
000004a0: 91ac 835e 6240 a8bf 154e b021 2d42 acbf

layer0_biases f8 [6, 1]
-0.054109054897393954 -0.051527526986366916 -0.05353264183592674 -0.05249740321432807 0.046558410912463724 -0.0459871354630668
00000000: 244f 679a 2eb4 abbf a71a 80e6 d061 aabf
00000010: bd56 e863 a168 abbf d265 dc8b f0e0 aabf
00000020: c20d 7208 81d6 a73f 0581 b335 a08b a7bf

layer3_weights f8 [16, 6, 5, 5]
-0.07640435695075617 -0.07420129963357809 -0.03348069236898974 -0.03367172981868487 -0.043951232710178034 -0.07733431210704712 -0.019731646676624852 -0.009748406240346766
-0.002301227454723207 -0.04762825899458381 0.007788159360963357 0.02578619060931908 0.03685217478214711 0.01709211334342021 0.006519571271857263 0.025760332318084826
0.041113852411546 0.051523830921949405 0.04394260366262597 0.044005003899583374 0.0165926277166454 0.03679139168030958 0.003595623029653272 0.031447836154907725
0.04346581706469204 -0.07877240325223006 -0.03810910138205608 -0.018619209610694243 -0.047664945169277766 -0.04799406128651343 -0.04610844596136492 0.0008095011989269967
-0.01331526508779213 -0.005433068317271232 -0.05785818764316025 0.009301126625601614 0.03134009476772394 0.019184837548117357 0.03596716690983195 0.023446407208359974
0.06475232959709054 0.06258290102212734 0.0471731739582013 0.05942120444166104 0.0508229200838748 0.022959607484459563 0.027725340393854596 0.03054632267178551
0.03207213102417347 0.04433432448781349 -0.07316340418477703 -0.01210502975713465 -0.002683894794241387 -0.04755680852809865 -0.10523840903949427 -0.058199646926807125
-0.0002544206116482997 0.022294481932572198 -0.05797456165811797 -0.10145122669186304 0.01852983349727726 0.03820812593260463 0.021303992273774327 -0.0012141671063209214
-0.05425942744596583 0.044983315829770526 0.04205928596129791 0.03370582367695196 0.04365846053828833 0.0025254826254535938 0.052687321938234055 0.04675948617883813
0.029083627085470392 0.05621043891472314 0.017302927690932404 -0.0912267509804031 -0.05585976325711518 -0.011016321595347415 -0.022122313509463185 -0.07331926569820642
-0.061390191688281304 -0.01930659582073047 -0.006276413954781682 -0.013505470487804146 -0.08198059755636376 -0.0019392419261459498 0.0521135010538829 0.021282909603947315
0.0411709091793039 0.002495070363226824 0.05442078429932869 0.06051809040996324 0.03390267612493875 0.04526901836970874 0.023663971438184554 0.014084970296468049
0.023435033331686787 0.011528839611402919 0.05138203272223221 0.03251746891299693 0.05064892772644669 0.05790465764353901 0.008340388358858841 0.01736575459022627
0.06861301679022003 0.07480356773040513 0.03577334944639835 -0.03633919372782481 0.02074518313684332 0.06998516063039954 -0.004853742672315812 -0.0142204002227737
-0.042611436352784006 -0.011830162473227629 0.01236503523240307 -0.08035901671579089 -0.0797655214364355 -0.050213886045284296 -0.06679041142215127 -0.06922825600073568
-0.06129707756667312 -0.022815610156378334 -0.04860637227331368 -0.06913708645936491 -0.07392599824197098 0.04467816165177429 -0.07043722890008959 -0.09155283864484909
0.014767678229270166 0.010940667847744471 0.00441489128482853 -0.07576545481731965 -0.07520525792773144 0.036222959487381245 -0.035891256033973876 0.0017081280786184843
-0.04658146160488822 -0.011286965970482295 0.023295879884576574 -0.01923701324425196 0.01798921886658896 -0.018782197437856224 0.03539339634566327 0.04014484825944548
-0.014615249786852596 0.03246387352956887 0.005436370304013568 0.015340357167010986 0.02795111745466868 0.0036898156441170257 -0.022972063724105277 -0.03926663161279815
0.025370919596922337 0.02997670210769977 -0.0027181151683448325 -0.0479741621620696 -0.03209006441421293 0.011703872009436032 0.018752737801693502 -0.003265198925312646
-0.03734321682917356 -0.0630618879511824 0.021120425191309126 0.029474249116542273 0.05898490148870298 -0.022934542248763647 -0.03829512230680794 0.022578337743788365
0.046790204246587384 0.03348659614359129 -0.013177722691928385 -0.029994707761746408 0.0117281954269168 0.03649781919156858 0.01077064661696613 -0.034636048589791434
-0.039971880513400095 0.025319599160945443 0.013087329706801747 0.008847597814152364 -0.053539398818350764 -0.06196512968301195 0.005630354635974168 0.044915515071780765
0.006735355585271377 -0.04038774226754635 -0.029404418902328252 -0.024748294232027762 0.029235978313521867 0.05263597380478317 -0.017774044043715465 0.001275648149427582
0.0025563020730248317 0.03961445120052636 0.046443000165455744 -0.015556407652234648 0.009143772848346493 -0.0016860220799913533 0.039651497958565624 0.04003801639076971
-0.032252203316615 0.01947501663133841 0.05646028258209455 0.030902285846641307 -0.05825645329167257 -0.06446698654449204 0.004430056107215525 0.04764523307474608
0.04450558750479709 -0.04679628665035275 -0.07215969063311352 -0.01352209779286452 0.03662597999121632 0.03822743941025779 -0.03217409772789957 -0.061195541763649115
0.0023943558079096636 0.034860905293576494 0.05690180541873304 -0.02806563703298712 -0.0017972622372293115 -0.0172566868331154 0.010104485092581909 0.020533644145241357
-0.034053658206193264 -0.060748398820237616 -0.015335110741646863 0.005041880073038561 0.03035872572709097 -0.01789272993587124 -0.048347499453613586 -0.04212142768971055
0.042520542129430565 0.03628742560072919 0.004755547747679946 -0.04478591595032873 -0.027662334088018974 0.024269193990063626 0.04929839141374635 0.008586777646646771
-0.015685059575995672 -0.00497267273907552 0.013340562243601018 0.05326984757551487 0.038575600882089306 -0.0025789052701588487 0.01773687283761091 0.014030354773399404
0.021472885511770207 0.007010826708389611 0.02709213263205478 -0.0032406854002751113 -0.06069564199849811 -0.027930485653626512 0.022078270650828496 0.06348087924442136
00000000: be1a 6066 3c8f b3bf cd35 3f3b dbfe b2bf
00000010: 0d64 8b9d 6124 a1bf a6f3 bdc4 6b3d a1bf
00000020: f8db 37a6 c680 a6bf b1c1 5b75 2ecc b3bf
00000030: 7e77 b064 8834 94bf f55c ecef f8f6 83bf
00000040: 6104 1415 06da 62bf 248b 7e2d bb62 a8bf
00000050: 9da0 051c 7ae6 7f3f 7ffa 6bf5 b167 9a3f
00000060: c49b f3ca 49de a23f 636c 514f 9880 913f
00000070: c357 5816 44b4 7a3f be6e 5ca3 ea60 9a3f
00000080: 8452 0af7 df0c a53f f97e 8ce1 5461 aa3f
00000090: 779e 431b a57f a63f 1dd7 37e9 d287 a63f
000000a0: 663d 9765 a8fd 903f 861f 1540 52d6 a23f
000000b0: 807e 466a 9174 6d3f 5b6e a147 ee19 a03f
000000c0: a7d3 92cd 2641 a63f dcaf cb9f 6d2a b4bf
000000d0: 8754 3b40 0983 a3bf f0d3 6b01 ea10 93bf
000000e0: 4fda 5529 8a67 a8bf 546e 4177 ad92 a8bf
000000f0: 7767 f2b6 869b a7bf bd9c 7596 9686 4a3f
00000100: 0194 b7a0 0845 8bbf 2b75 d52b fc40 76bf
00000110: 9866 779f 969f adbf 9d20 6215 780c 833f
00000120: b26d 2914 cf0b a03f 3598 64a7 30a5 933f
00000130: 730a 37db 496a a23f b9a6 acc0 5502 983f
00000140: c895 f5d1 9b93 b03f 95c8 2dd9 6e05 b03f
00000150: df48 cc0e 1527 a83f 571f 88c3 746c ae3f
00000160: 6180 4b37 7605 aa3f 3c58 192d b982 973f
00000170: ee5c 0c19 0864 9c3f 0ab4 8d03 8947 9f3f
00000180: ac44 b923 c26b a03f f0e3 8713 fdb2 a63f
00000190: 6dd6 3c3c d6ba b2bf 305a 6497 85ca 88bf
000001a0: 40de bf0b 89fc 65bf 631f a9b2 5d59 a8bf
000001b0: 2492 1b85 e7f0 babf e0f6 6018 58cc adbf
000001c0: 806a da34 78ac 30bf 9a6b 205b 5dd4 963f
000001d0: 7ea2 a47c d7ae adbf a2d7 c724 b5f8 b9bf
000001e0: cd09 7c13 7cf9 923f 66db a4f6 0390 a33f
000001f0: 7f42 5cb8 b6d0 953f a9a1 dd00 96e4 53bf
00000200: 869d c244 e4c7 abbf 7c81 b59c 0d08 a73f
00000210: 4dce 6473 cb88 a53f 1027 c1c4 e341 a13f
00000220: 9a4b 69d8 665a a63f efd6 0d29 52b0 643f
00000230: 88ee 4629 d5f9 aa3f 68ed d4ff dbf0 a73f
00000240: bb80 b92c 19c8 9d3f e542 aa59 9dc7 ac3f
00000250: 74fd 3ad2 dbb7 913f c72d fbe7 a25a b7bf
00000260: 8206 b4a0 a699 acbf 153c cba7 b98f 86bf
00000270: ecd7 2354 3ba7 96bf 0d2d 5728 0dc5 b2bf
00000280: 6053 3103 896e afbf a1a8 96b6 1bc5 93bf
00000290: c449 c00a 4cb5 79bf fe68 7f90 c1a8 8bbf
000002a0: 273f 6931 aefc b4bf 9290 b729 c5c5 5fbf
000002b0: dfb8 69ed 9eae aa3f 45c8 d9e2 2fcb 953f
000002c0: 3282 f178 5a14 a53f fc96 8fb3 8a70 643f
000002d0: 5a9a 9381 0add ab3f 8e1b 4126 3afc ae3f
000002e0: 1930 680a b15b a13f 0d00 d732 802d a73f
000002f0: 8192 ae3d 5e3b 983f 01c5 4eb6 94d8 8c3f
00000300: f107 f676 5aff 973f 3304 bca8 6e9c 873f
00000310: f4b8 49ec be4e aa3f 955e 0f33 21a6 a03f
00000320: 903a 5300 a8ee a93f 4eeb bae5 ada5 ad3f
00000330: f3dc e5f9 c314 813f a13b 2410 54c8 913f
00000340: 08a3 3167 9f90 b13f c3b5 069d 5326 b33f
00000350: 459e e16b e250 a23f 037f 3f01 0d9b a2bf
00000360: 1135 7dac 393e 953f 3be5 1c28 8cea b13f
00000370: c419 a7a0 84e1 73bf 7a8b 24cf 951f 8dbf
00000380: f53e 248b 2ad1 a5bf 3058 6e87 693a 88bf
00000390: c318 7fef d652 893f 75a8 bb94 6892 b4bf
000003a0: 04fa ea61 836b b4bf dd37 bd6c a2b5 a9bf
000003b0: 2999 be28 2d19 b1bf 6876 7b67 f1b8 b1bf
000003c0: 2e7d fa9e 5462 afbf fef7 d6ad f95c 97bf
000003d0: e308 9536 efe2 a8bf 59a0 48d5 f7b2 b1bf
000003e0: c7fe c570 d0ec b2bf 2f90 4756 0ee0 a63f
000003f0: ddf7 8b9a 2c08 b2bf 58e9 d5bf 0170 b7bf
00000400: 41b2 4238 843e 8e3f 2fd7 d194 0f68 863f
00000410: 0593 f05a 5915 723f 4f61 9b66 5d65 b3bf
00000420: 166f 49db a640 b3bf 58ab b9d4 d08b a23f
00000430: faad c1b5 5660 a2bf 26fd 0a8f 68fc 5b3f
00000440: 75c0 627c 86d9 a7bf c4db b6ed 9e1d 87bf
00000450: b975 f108 e0da 973f 9bf1 061b deb2 93bf
00000460: 16b0 d90a c46b 923f 186e f8ee a33b 93bf
00000470: 2c15 994f 151f a23f 7920 c194 dd8d a43f
00000480: 09f6 db9e 99ee 8dbf 29d2 38d6 1a9f a03f
00000490: 898b a28a 7244 763f 7fec bae2 c36a 8f3f
000004a0: b5f6 6abd 379f 9c3f 87ce a1b0 1a3a 6e3f
000004b0: f4a8 aa19 fd85 97bf 89bc 3385 c11a a4bf
000004c0: 90be c097 d5fa 993f 432c c76c 36b2 9e3f
000004d0: c357 27f8 4c44 66bf 8d03 14c3 1190 a8bf
000004e0: 1204 5fe2 1b6e a0bf 0c04 231c 33f8 873f
000004f0: de62 46ee ea33 933f 2741 2c53 9ebf 6abf
00000500: 3679 046e a61e a3bf 10d5 5fea d224 b0bf
00000510: 8eab e5bd 97a0 953f 3d6b 1e60 7f2e 9e3f
00000520: 051a b4dd 4433 ae3f 37f1 a013 277c 97bf
00000530: fae0 ce13 6b9b a3bf 9f98 d498 c61e 973f
00000540: 0b46 06ba e2f4 a73f 0109 95b6 2725 a13f
00000550: 3410 fbff ebfc 8abf 0322 8fc3 eeb6 9ebf
00000560: 6ecb 65be f304 883f 0031 9b97 d7af a23f
00000570: fa29 d0b7 eb0e 863f 6361 e9ef d0bb a1bf
00000580: d51c 21bf 3177 a4bf 0e59 6089 61ed 993f
00000590: 9655 a9a8 87cd 8a3f 4d5e 147a b01e 823f
000005a0: 9cd3 f11d 8469 abbf 233d f6ba e4b9 afbf
000005b0: 0219 6cd0 da0f 773f 38f1 a198 2aff a63f
000005c0: f663 733f 8896 7b3f 2c93 65c0 b3ad a4bf
000005d0: df6c 2c26 311c 9ebf e8f1 6ee9 9d57 99bf
000005e0: 3f7f e44a 09f0 9d3f 1658 2b34 1af3 aa3f
000005f0: f0ab 8ae7 5b33 92bf afc7 4fc5 74e6 543f
00000600: 1ec2 ac39 f4f0 643f 27e3 b568 5848 a43f
00000610: 4c71 ad7d 60c7 a73f bf71 e0b0 09dc 8fbf
00000620: ddfe c36a f8b9 823f f3cd 686c b09f 5bbf
00000630: c45b f07d 334d a43f 8979 fde5 dc7f a43f
00000640: 1907 f05c 5c83 a0bf 7826 153e 42f1 933f
00000650: 3d10 6db6 5ce8 ac3f 96f5 544c d9a4 9f3f
00000660: e95d 5633 cad3 adbf 1259 e18e e880 b0bf
00000670: 3a56 9921 4025 723f dc8f bbbb f464 a83f
00000680: a60d a5b5 6fc9 a63f 729a 79d1 aef5 a7bf
00000690: c5d3 5bb7 0e79 b2bf 086e 593e 79b1 8bbf
000006a0: 2211 7ef4 a3c0 a23f a65c 2704 8c92 a33f
000006b0: ce0d 0a93 1f79 a0bf 395e 12a5 0555 afbf
000006c0: b08c 7afc 539d 633f a82b 4ae0 49d9 a13f
000006d0: 53b0 b6c2 3b22 ad3f 19d7 ca04 3dbd 9cbf
000006e0: f7c3 ffa1 4372 5dbf f798 57a6 bcab 91bf
000006f0: 4fdd 1f08 a9b1 843f d63a 4988 c506 953f
00000700: c709 9c28 7b6f a1bf 0d40 6f04 6a1a afbf
00000710: 0d63 edb8 0368 8fbf 3187 6260 cba6 743f
00000720: 7f98 9598 5b16 9f3f a995 a4c7 7852 92bf
00000730: ad48 fee1 00c1 a8bf b7b9 c694 f090 a5bf
00000740: df4b b5a3 40c5 a53f d21d 6cf4 4394 a23f
00000750: 024a d0a0 8d7a 733f 5af8 a7f8 2dee a6bf
00000760: 1bce f4d0 8353 9cbf 354e f309 06da 983f
00000770: 1d22 bc85 a33d a93f daeb 5cc9 f195 813f
00000780: 89aa a887 be0f 90bf f0cf 9bac 395e 74bf
00000790: 3a45 5ff4 4b52 8b3f 7c44 667a 2f46 ab3f
000007a0: 4c9b 6c60 2ec0 a33f 661e 6f39 5b20 65bf
000007b0: 9759 1563 9d29 923f b566 3957 f2bb 8c3f
000007c0: 6860 18f4 fcfc 953f 9326 e376 62b7 7c3f
000007d0: 7ec6 883e 0abe 9b3f ff1f f2b9 358c 6abf
000007e0: 245b c9ca 7f13 afbf 565f c629 cf99 9cbf
000007f0: 0b16 97a9 af9b 963f 78af 466c 4840 b03f

layer3_biases f8 [16, 1]
-0.02947480413638613 0.0032258296527313823 0.026097330274813715 -0.006551185274880109 -0.027071218149890663 -0.04345016828661168 0.009827628481680542 -0.03461076953364583
-0.048814243684844445 -0.002003337290078437 0.008702701135965843 0.018249828368815654 -0.03353616849187161 -0.02682511431253685 -0.004678771938890387 -0.04684033012040401
00000000: bb81 499f a42e 9ebf 80e3 8c1b 0e6d 6a3f
00000010: f445 2c30 42b9 9a3f 2421 1768 6ad5 7abf
00000020: 4076 77b2 8eb8 9bbf 37e8 97b7 193f a6bf
00000030: 1590 68f7 8120 843f af09 79b6 80b8 a1bf
00000040: c127 6938 2efe a8bf 568d 9984 4d69 60bf
00000050: 486e 20c6 b8d2 813f 6cb7 0140 15b0 923f
00000060: 65bc cf15 a72b a1bf fb37 bcf2 0a78 9bbf
00000070: 485a 6847 0c2a 73bf 5180 00ac 74fb a7bf

layer7_weights f8 [576, 120]
0.06334873189596407 -0.04596371570745049 -0.022891507447051828 0.02250500896629084 -0.0525157387315954 -0.0056559661719078535 -0.01031355509590524 -0.020294130810893356
-0.023906440574973133 -0.01136208422493241 0.05029642981339514 -0.02743267427997195 -0.006497102726601586 0.015491348532654357 0.04456518327488568 -0.022542184006937003
0.0060986463281465396 0.0015857178013672798 0.042270218504882474 0.09075545523441256 -0.006161717628627538 -0.024953588013752765 0.008672666204562529 0.02780295006046093
0.04997727638270657 0.03606613007188317 0.029613693991673542 0.03331886518472761 0.027124219802977353 0.048213366788106934 0.03559088078147486 0.008490799720359434
0.0023997544522052668 -0.03171917573019148 -0.01036184493109442 0.06851725803219999 0.029556078294573334 0.019243329464303023 -0.02352932323274705 0.03212895635593334
0.019968669506058523 -0.012395545129194708 -0.007036682523354127 0.047843240846385644 0.015498838398823805 0.03192107498510175 -0.027999759341469282 0.01295199995186245
-0.0012924437520902862 0.040778367474508116 -0.012275611873275664 0.026137001059510535 0.012128244069647888 -0.028863671102912478 -0.0036279291804774856 0.07687270948218457
-0.0479175787301669 0.00645487865404296 -0.0049114101172080754 -0.002918080478581907 0.007279835410917823 -0.017452491306728154 -0.042701155057086625 -0.031114335644493344
-0.018402954029028917 0.033455608202454676 0.00995776071471303 0.02282606754749001 -0.015265961533917228 -0.05630235041196322 0.014198651648948136 0.0029286548144285903
-0.008150571427978738 -0.030740928076554375 -0.03528702575848234 -0.032945377933626195 0.024086849911852795 0.01942681621731414 0.006666754347568993 -0.02106425673011661
-0.00810435410954926 -0.01930648393669472 -0.04036034047382202 0.01723893629265131 -0.00879855971180957 -0.007142177449040974 -0.011552530051107434 -0.005598130528022245
-0.012947938412694926 -0.03670873273163945 0.03768353187240501 0.021876235273767954 -0.010597213802123473 -0.022684912203658827 -0.03214095925725505 0.04901177323373199
-0.05171290283319378 -0.04559891778737956 -0.06372328194361147 -0.009328131844933028 0.004679293207411736 -0.01965231784906666 0.022298932906066188 0.005960968843400944
0.059968389655186846 -0.002860364109671511 -0.017891673772327567 0.03596269720523718 0.0368926049503959 0.048852066989655295 0.05274158572181121 0.020725394413227932
-0.003771583925162472 -0.06029691919891644 -0.003340646548230529 0.037455205260548276 -0.08260922842868089 0.08542236334387451 -0.02789372844746662 0.025264636604591433
0.028462196324006317 -0.02950071351436175 0.013912165576583752 -0.0081801394367748 -0.027941208362034283 0.015029504777938123 0.010773720553182875 -0.005946777608074269
-0.003927990164682069 0.015324509738959194 0.03771944452553134 0.013626372019400269 0.01413306593574383 -0.011916744071667268 -0.010815929021798305 0.007841895133484164
0.02743261122562918 -0.03719759789104231 0.016014189587659603 0.03111135780181233 -0.021045841391337666 0.001872240667620643 -0.002101487602531734 0.04216486932159059
0.017599908463604395 0.017661465789431178 -0.006931011227539308 0.008047554939400261 0.0037402134057817503 0.041571060116419103 0.04233188371051305 0.008912458342745925
0.01838025586092779 -0.023831766973537945 -0.02342186556722116 0.03726638616273319 -0.001979737843847744 0.013821318536142432 0.008784568469002019 0.011514660101462574
0.0021046129073696825 -0.033135370563695164 -0.03241686078290808 0.035534713346845374 0.017540836430969896 -0.011661430962289672 -0.01453393856024688 0.009161676296718314
0.0009841609324956614 0.02612634430199346 -0.029161886070559254 0.03233151495697903 -0.007273059981756407 -0.015711517799661606 -0.015059566636916532 0.04492942367857803
-0.03829411804135218 -0.0007550530604548308 -0.004788529556162619 -0.002597821574473677 -0.006093061186312199 -0.022279997886437985 -0.025432140787439352 -0.015068377532537739
-0.02337605610442311 0.05108076669414884 0.017066404054860748 -0.021608316677783766 0.0075784653793259825 -0.037918311902726806 0.009026665425113862 -0.008295286311022915
0.003973332375323632 -0.031620597337693256 0.012259434059987162 -0.011425482817355139 -0.010060615648761123 -0.027520367153358146 -0.022531702077633747 0.0017119888554605843
-0.014513624434508168 -0.017065034165892876 -0.037380852409255635 0.018424384576830377 -0.02181877305597258 0.009636579081133047 -0.022026635624282774 -0.0064592468041194985
-0.0057088785466866375 -0.003002668687061236 0.03272094291178446 0.030579670963792664 -0.030216054392512553 -0.004756072507488859 0.005574706269862003 0.025461761502299913
-0.015635407842566614 -0.024330423527091503 -0.04155655445030925 -0.008021555327588538 0.0024550222949400718 -0.04031558711062572 -0.00020896231170652754 0.004175738912466309
0.03664844053539282 -0.03012217506404265 -0.010007344574028038 0.04442260271253122 0.03090570522747601 -0.010130034471622444 0.03411923971451098 0.03462091398635339
-0.012250390089431414 -0.02527791863415412 -0.0071825927672633 0.05162998368308987 -0.030602668168346385 0.015537327846245426 -0.015222025820763842 0.050548846148091575
0.019334145786181388 -0.056099214752523004 0.002796826659916781 -0.042570978352782854 -0.016880115415266784 -0.012489424005660802 0.01495306086536194 -0.023176397463369473
-0.02369989566720311 0.023248954290539345 -0.005747673003802143 -0.013521154327316742 0.0017401169486946503 -0.0003539067194990564 0.025361769590394302 -0.0071345138510105965
00000000: 147a bc5b 9f37 b03f ae43 885f 8e88 a7bf
00000010: e36a 5d0f df70 97bf 468f 0696 8d0b 973f
00000020: 6c45 c1c8 57e3 aabf 5720 c5db b52a 77bf
00000030: f63f bdee 451f 85bf dbbc 8810 fcc7 94bf
00000040: faac bb11 ee7a 98bf e5aa 4821 0145 87bf
00000050: 15e5 4e22 74c0 a93f 7748 7f9b 4f17 9cbf
00000060: bc0e acbb b49c 7abf 52ac 8c9a edb9 8f3f
00000070: 2069 6969 3fd1 a63f a95f 5c5c 4c15 97bf
00000080: 33d9 77e8 e4fa 783f c661 3e86 fbfa 593f
00000090: 4580 252c 71a4 a53f 4257 2ae0 bf3b b73f
000000a0: 32f9 3b7b 073d 79bf 7569 bff1 6e8d 99bf
000000b0: 40e4 bd8d f9c2 813f 17cf f764 6078 9c3f
000000c0: b3b8 361f 9f96 a93f 9cd5 4d82 4277 a23f
000000d0: 37fb d45c 0d53 9e3f 62d1 9d98 2b0f a13f
000000e0: 0fe7 ee93 73c6 9b3f 6e81 2b23 6caf a83f
000000f0: be0a fcc9 f738 a23f 2138 edd8 9f63 813f
00000100: a838 805c a6a8 633f b4a1 d5ec 7e3d a0bf
00000110: d999 d748 9738 85bf 80bb 75d6 588a b13f
00000120: 6b5d b1d6 f243 9e3f b280 dcfa 85b4 933f
00000130: e46b 2027 1218 98bf 0a50 9be1 3473 a03f
00000140: 7082 e4b9 aa72 943f ba5f 91e7 d562 89bf
00000150: 2156 f614 7fd2 7cbf 692d 8ac5 e87e a83f
00000160: 3639 64e0 dabd 8f3f 3d75 3a8a f557 a03f
00000170: 2880 ab0a f8ab 9cbf 3537 b001 9486 8a3f
00000180: 8edc 6ae9 e62c 55bf 7de3 5ff5 e6e0 a43f
00000190: 8fda 45bc f423 89bf 7a80 1073 a8c3 9a3f
000001a0: 54aa 185d b1d6 883f 4cd1 b72d 708e 9dbf
000001b0: e8d9 d5a5 51b8 6dbf ed4e 2e0d eead b33f
000001c0: 8261 1923 a788 a8bf a50d 804b 6e70 7a3f
000001d0: f959 4a9d fc1d 74bf 3195 1f87 a8e7 67bf
000001e0: 0d98 29f0 75d1 7d3f efa0 95dd 10df 91bf
000001f0: 2377 f100 eddc a5bf 3195 1eb8 6fdc 9fbf
00000200: c060 d156 39d8 92bf 86d5 31ee 1721 a13f
00000210: 1581 e304 bc64 843f 7276 7376 b75f 973f
00000220: fac8 3dac c243 8fbf 1525 6a63 a9d3 acbf
00000230: 2713 d6c3 2e14 8d3f d19a c694 d5fd 673f
00000240: d4a6 d02d 3fb1 80bf 6030 f3c2 8c7a 9fbf
00000250: 452a 361b 2411 a2bf 63fe 8e71 37de a0bf
00000260: 544f 8a22 39aa 983f c46a 4691 9fe4 933f
00000270: 5ada 4a3e 994e 7b3f 68e3 1457 de91 95bf
00000280: 4c82 d8fe 0399 80bf 3477 6f34 14c5 93bf
00000290: 66ee c74c 1caa a4bf 0a0a 616e 15a7 913f
000002a0: 5287 b6b1 fa04 82bf e4c2 0da9 1d41 7dbf
000002b0: f364 0b56 daa8 87bf 61e4 95b8 10ee 76bf
000002c0: 80e2 43e0 7284 8abf d2b7 1ead 7ccb a2bf
000002d0: edc0 fa81 414b a33f aae2 3d4c b966 963f
000002e0: 60b4 abf5 fdb3 85bf 9400 1cb0 b63a 97bf
000002f0: 0474 bea1 c774 a0bf 54d1 5036 1218 a93f
00000300: 464b e614 1d7a aabf 8f73 42c9 bd58 a7bf
00000310: 9b0c f143 2b50 b0bf 9f73 a7a9 a01a 83bf
00000320: ca28 b534 982a 733f ca31 cfb9 bc1f 94bf
00000330: d8dd 440e 88d5 963f a113 c263 876a 783f
00000340: 86c2 b940 2db4 ae3f 1d39 c849 9e6e 67bf
00000350: 3a32 e4e6 3152 92bf 05b1 bee0 b369 a23f
00000360: 3dd0 7367 96e3 a23f 4309 205c 2303 a93f
00000370: c1f3 a0f3 f100 ab3f f859 ceac 0939 953f
00000380: 862c 9bb3 95e5 6ebf a08e 04e0 3cdf aebf
00000390: 1737 82f5 d75d 6bbf 556b 5123 542d a33f
000003a0: 37f0 72de e025 b5bf 46b2 e870 3dde b53f
000003b0: 1e10 c86d 2c90 9cbf 3e22 d90f f9de 993f
000003c0: 3027 89a9 3125 9d3f d5ea 025f 6f35 9ebf
000003d0: 9dfd 5741 fb7d 8c3f d880 dcba bfc0 80bf
000003e0: bfac 80c0 9e9c 9cbf 9c76 f8fb c9c7 8e3f
000003f0: 2012 754b 8810 863f 7d02 7ef5 a55b 78bf
00000400: 24b9 bdd4 cb16 70bf 159e 3fe1 7462 8f3f
00000410: a125 5289 f64f a33f 67db 7db1 24e8 8b3f
00000420: 48cd e3ff cbf1 8c3f 233b 8050 ce67 88bf
00000430: 4a56 656b a926 86bf e586 1859 690f 803f
00000440: d159 3b60 4b17 9c3f f612 dd44 900b a3bf
00000450: 112a 3412 0666 903f 0cf8 2be1 a7db 9f3f
00000460: b86b f881 0a8d 95bf ded0 021c bfac 5e3f
00000470: 458b d390 2337 61bf 217d 8d3d a296 a53f
00000480: e61a 0edd b505 923f c130 dce7 d815 923f
00000490: c0ce ce28 b163 7cbf 4e4b 388a 3c7b 803f
000004a0: a6a9 40c8 cba3 6e3f b2f4 514f cd48 a53f
000004b0: b8bd 3a50 86ac a53f cf58 dfe8 b140 823f
000004c0: 315a 4217 46d2 923f 7f69 07cf 5a67 98bf
000004d0: c476 7dca e6fb 97bf 463b 9e6b 9414 a33f
000004e0: f047 68a9 cf37 60bf fe79 cdf8 594e 8c3f
000004f0: 0d4c 45d2 a4fd 813f 6292 7b84 ff94 873f
00000500: 7ada 7373 b13d 613f 1be6 d289 1ef7 a0bf
00000510: 429b cd59 f198 a0bf 4716 651f 9b31 a23f
00000520: b612 439b 39f6 913f 445b dcc4 f2e1 87bf
00000530: c4fc 6236 f8c3 8dbf da4a 9160 5bc3 823f
00000540: 3e70 38c1 de1f 503f c248 5d49 ddc0 9a3f
00000550: e1d5 d90b 9ddc 9dbf cc9f bd9e c18d a03f
00000560: 6c41 372c 5bca 7dbf 3bf3 7a1c ae16 90bf
00000570: 3975 94d1 8cd7 8ebf e5bd a74a fd00 a73f
00000580: 6fc9 3b61 499b a3bf a16a c719 d8bd 48bf
00000590: 9432 6f1d 239d 73bf 60ad 80d6 0648 65bf
000005a0: 409d 71a8 09f5 78bf 63da 1b59 91d0 96bf
000005b0: 771a cc13 e20a 9abf 75f3 a565 2bdc 8ebf
000005c0: ee6d e991 e4ef 97bf ffdb cf1c 4227 aa3f
000005d0: 4c92 1afd da79 913f a98e cf95 7d20 96bf
000005e0: b344 54cf 980a 7f3f d65e 156b 076a a3bf
000005f0: 77a6 5786 927c 823f 309b 557b 1efd 80bf
00000600: a3fe ba49 5746 703f 7b08 e42e 9330 a0bf
00000610: ad45 d762 791b 893f 4e18 5558 3e66 87bf
00000620: 302f 83f9 a89a 84bf bf20 9793 4c2e 9cbf
00000630: 98c5 2fee 8c12 97bf ebea 4c09 9a0c 5c3f
00000640: 2853 57b2 51b9 8dbf fc2c 970e 7f79 91bf
00000650: 664f 3045 9523 a3bf 005e d384 d7dd 923f
00000660: e263 db12 a957 96bf 8e82 fdbf 57bc 833f
00000670: 66bc 967e 268e 96bf a4de 7cdc 0275 7abf
00000680: 5c49 7a6a 3162 77bf 140c f979 0d99 68bf
00000690: 799a 66a7 ccc0 a03f 4104 d9fa 4650 9f3f
000006a0: 8b51 b815 f5f0 9ebf e379 087e 1a7b 73bf
000006b0: 7c62 d2d1 80d5 763f 95c0 cde3 a512 9a3f
000006c0: 2fb0 5f75 ba02 90bf e901 6315 13ea 98bf
000006d0: cfd7 9894 e646 a5bf c741 5cee 9a6d 80bf
000006e0: bc8c f70e 8e1c 643f 987f 51a0 3ea4 a4bf
000006f0: d6ff f996 9c63 2bbf c003 0d61 941a 713f
00000700: 1c0b 199b 95c3 a23f d546 23f3 58d8 9ebf
00000710: 6a70 520d bb7e 84bf e600 b533 8fbe a63f
00000720: d6e8 d8c4 bea5 9f3f 8f90 1a36 0ebf 84bf
00000730: 89f6 79b5 1378 a13f e474 a81a d5b9 a13f
00000740: 44f9 6086 bb16 89bf 8ee9 6067 74e2 99bf
00000750: 05f9 9290 7e6b 7dbf 8ae2 d2c6 3e6f aa3f
00000760: ee44 d04b 4e56 9fbf 111e bcd7 08d2 8f3f
00000770: 0ee4 a1b8 b92c 8fbf 38f9 1cd2 89e1 a93f
00000780: 5617 648f 54cc 933f 0101 6349 09b9 acbf
00000790: 2b7a 2ee1 5ee9 663f ca5e 91ff dccb a5bf
000007a0: 9d25 a55e 0549 91bf 0f97 331d 0e94 89bf
000007b0: 3176 22db b59f 8e3f 51bb 93b4 8dbb 97bf
000007c0: e4ab 3c13 c944 98bf ac52 60e9 92ce 973f
000007d0: ca5a 4539 df8a 77bf 53b5 1e9d fab0 8bbf
000007e0: 3fe9 b158 9482 5c3f d7bd 3cc9 9131 37bf
000007f0: 0a75 d68b 6ff8 993f f770 9b7a 1439 7dbf

layer7_biases f8 [1, 120]
-0.014675951492485692 0.002300680494261607 -0.03191533513040315 -0.012340065835994587 0.00865405038605208 -0.014752680417337967 -0.020353499675315877 -0.012349565684008666
-0.007274068314628716 -0.00423044168240771 -0.0109860269325605 -0.009764993757442013 -0.022938303154919047 0.021240948061829492 0.010944510132251992 -0.02454723031582633
-0.014822779924180112 0.013081557832924591 -0.014928192248172108 -0.012669132857834876 -0.010516377833034638 -0.016582264484331984 0.02834481343273365 0.00961596907835113
-0.001723976930907033 -0.009046930425806567 0.01404081508463708 0.0038832605161369126 0.01425301305744615 -0.011486606592634754 -0.00010741223569291894 0.011039029267787158
-0.009993205415850399 0.010581654395687055 0.01191318752554294 -0.013161892569278192 0.012125657081204352 -0.0006024634957749452 -0.016065600773230895 0.00804548836579921
-0.016531004116391926 -0.007798447050398782 0.004615943420179066 -0.014932906322047017 0.018131818369585283 0.009228315060249521 -0.005333473104670305 -0.009015587253026269
-0.016937079033143572 0.002178649617450289 0.011574408228157865 -0.024425853813365074 0.02346011152439435 -0.017204630614049813 0.014886343736064418 -0.008081669027345431
0.001970619900462777 0.017714655416715207 0.01712347348361903 0.02282230686133315 0.008768223327508099 -0.01259538005336466 -0.010603742856479921 -0.015461369213006068
-0.025812397817231332 0.004162863072748176 -0.019905067431573 0.010487465951685673 -0.008162709020005451 0.0036458514717642066 0.0163173087105319 0.011894999415228594
0.01596622496709455 -0.007665384765860714 -0.025844637917257166 -0.019314449937723854 0.012433044629913657 -0.0026024355642635163 0.02310379622308671 -0.02007101364534645
-0.011703267055184843 0.011695553428701088 0.001385244853635233 -0.0008998368768134559 0.017464878548203635 -0.013400649419381563 0.0017021756654165682 -0.00590542636958834
0.005418373221835445 -0.02076222312614191 0.0008769178126004347 0.01631471656289935 0.011463020064939843 -0.018885772259546924 -0.022126785827865838 -0.003229656340085151
0.012666138925825677 0.004374517939271325 0.013062099784231517 0.013655730044056874 0.02632742446122532 -0.02061277190957139 0.015615738223034973 -0.019749341929075983
-0.00408131776888817 0.017124761498837807 -0.02762150052109694 -0.011737954249818728 0.026111980597708324 0.013995879465058791 -0.006348273271811733 -0.01044363345055591
0.01116650576301247 0.008985235475087412 0.002027216745223995 0.001799365503678781 0.0054469847429906805 -0.002494708374966333 -0.01759200815808344 0.016686938457430255
00000000: 0551 95dd 6c0e 8ebf 499e 676f e0d8 623f
00000010: 047e 40f1 3457 a0bf 4e94 9199 bf45 89bf
00000020: d396 16fb 36b9 813f a4cf 5d3f a736 8ebf
00000030: 86c7 db3d 8cd7 94bf 7268 dca5 ba4a 89bf
00000040: 6bbd 52d8 69cb 7dbf faf7 c68a f053 71bf
00000050: da48 1b93 d77f 86bf 89bd ab46 abff 83bf
00000060: 3923 8177 237d 97bf d7de 0be5 2fc0 953f
00000070: 58c9 b548 136a 863f 4dc9 a7bd e822 99bf
00000080: 36ce 14d8 675b 8ebf 64cc 95f8 80ca 8a3f
00000090: 8453 f40b ac92 8ebf 3a3a 583a 46f2 89bf
000000a0: 120f ec56 9c89 85bf 2285 9dee f0fa 90bf
000000b0: 60ba d13a 6c06 9d3f 2eda af85 89b1 833f
000000c0: fb30 6322 e23e 5cbf a1d6 7672 3287 82bf
000000d0: cc16 c84c 6ec1 8c3f 85a1 659d c9cf 6f3f
000000e0: a60a 9c07 af30 8d3f ae52 423d 4a86 87bf
000000f0: 586a 7028 5028 1cbf 1f55 7a6d a19b 863f
00000100: 57da 8b53 5177 84bf cc51 899c d5ab 853f
00000110: 03af 81f6 f065 883f e2ad 1b51 9ff4 8abf
00000120: 2bab d924 56d5 883f f522 7581 d4bd 43bf
00000130: 747f a537 8073 90bf 7ea9 4a2b 277a 803f
00000140: b424 33e8 80ed 90bf 8024 a8b0 43f1 7fbf
00000150: bc49 7ae0 2ae8 723f bca4 4cc2 2495 8ebf
00000160: 7353 a8bb 2591 923f a432 0c7b 4be6 823f
00000170: bf3f f048 8dd8 75bf a673 3fa3 c376 82bf
00000180: 8202 2622 f457 91bf fe8f 679b f5d8 613f
00000190: e2e2 7bc6 52b4 873f 4a9b 384d 1703 99bf
000001a0: 2bf9 076f ed05 983f 71f4 4e37 179e 91bf
000001b0: 6afc 063c bb7c 8e3f 483a 5b41 1f8d 80bf
000001c0: 188a cf80 b024 603f d6e4 b266 ca23 923f
000001d0: cf9c 6cda d088 913f c6d4 5a16 bb5e 973f
000001e0: 6241 7c03 13f5 813f 6e75 474b 9bcb 89bf
000001f0: c42b 4546 6ab7 85bf e54d f8d8 35aa 8fbf
00000200: 824d d3b1 906e 9abf 1537 150c 140d 713f
00000210: 31b8 9276 fe61 94bf 2e44 3eda 737a 853f
00000220: 2b2f 4d42 9cb7 80bf e92a cb9a e7dd 6d3f
00000230: 34f6 140d 7cb5 903f e275 cbcb 675c 883f
00000240: 2208 4c38 7359 903f ca0d 170e bd65 7fbf
00000250: 31bd 864a 0477 9abf d07f 4acb 2ac7 93bf
00000260: f2fb 9900 7f76 893f cc41 6ef4 b351 65bf
00000270: 4c34 c484 85a8 973f 9a3c d1ec 7e8d 94bf
00000280: ee25 11ea e1f7 87bf f90e e19b d6f3 873f
00000290: 21e2 f855 23b2 563f 7d3a 94fa 607c 4dbf
000002a0: 37c8 c528 50e2 913f bbe0 02b8 cc71 8bbf
000002b0: bb24 2934 71e3 5b3f f365 05d2 4930 78bf
000002c0: 629c 907c 9331 763f f3b0 4635 b142 95bf
000002d0: f26e c7a9 1ebc 4c3f 311c 5318 ceb4 903f
000002e0: cca5 5682 ec79 873f e59a dbb8 ca56 93bf
000002f0: d730 fc75 67a8 96bf 7e9c 748b 1475 6abf
00000300: bac5 9f63 b4f0 893f e44b c2b7 03eb 713f
00000310: a676 1f5b 4dc0 8a3f 50af 890f 89f7 8b3f
00000320: cf0b 328c 93f5 9a3f af12 edb4 831b 95bf
00000330: c243 c4e7 24fb 8f3f c7c5 cfe6 2b39 94bf
00000340: 59a9 7865 92b7 70bf a473 5b4a 2789 913f
00000350: 8944 9e85 cf48 9cbf c7d3 ff8c 110a 88bf
00000360: 35c4 cd5a 19bd 9a3f 9344 a624 dfa9 8c3f
00000370: 6681 6aa1 a500 7abf d2ee f8c0 7863 85bf
00000380: ba7a 8008 77de 863f ea4f 19e4 d966 823f
00000390: 07ac ecb3 619b 603f 557c 7aff 157b 5d3f
000003a0: 9bc9 53d5 934f 763f def0 455c c86f 64bf
000003b0: d4f8 d6ae a303 92bf 53b5 c77b 6116 913f

layer9_weights f8 [120, 84]
0.03981838937869961 0.025981549309680732 -0.06611046307503467 0.04625310398473206 -0.02086274333128631 0.016892925344849385 -0.03439163585627609 0.015359784556492716
0.009641078906603552 -0.007734441694413801 0.003819563022573328 -0.009701895596219425 0.07490879960760347 0.03950819110523585 -0.028086451973565227 -0.014360386251205738
-0.007515887245849701 -0.021024975712557882 -0.004029893445866777 -0.072056489814727 -0.005805904814896103 0.031728066734609525 0.039751449945935824 0.05487772630421856
-0.00961302791229251 -0.004405818078436754 0.03348925671875783 -0.041491509489060135 0.008843394229121277 -0.007865299410856678 -0.012802993213031279 -0.05524566096602581
-0.054434191623921206 -0.019260350897246637 -0.06039670781185497 -0.025946746886457518 -0.011183329704468276 -0.045649543961125076 -0.006110936070755116 0.054935239558128235
0.03719186327816794 -0.023165708458321527 0.05964121740259677 0.007195927446034838 0.018004084259344078 0.014753508384792521 0.06403929267437732 -0.01626745879355299
0.04009470491560512 0.07625597713186676 0.018082387872321467 0.004135181779735352 -0.0009901474389699858 -0.05846810157393295 -0.030827848434085706 0.008268183856682773
0.01573691300375111 0.054488078518248814 0.020560249995984853 0.04265245330801547 0.011426939979500634 -0.05290477267032137 0.031356796834481226 0.006459244987901838
0.021360654419025727 -0.031243211463407913 -0.05668719312814832 0.0062711217038310405 0.0010589113619813501 0.041041004284755996 -0.047878587434890096 0.03268877543332322
-0.028798638710321227 0.034781033889658884 0.048854560133809136 -0.05140292493352728 0.001045368662486952 0.011023336362285379 -0.023627912776905315 0.04373008082567179
-0.01433293153885409 -0.015530922300490538 -0.05616364278559614 0.061921828104215974 -0.019443350644539385 -0.021396269735526014 0.11106203286078842 0.0706794100033647
0.005442002048489091 -0.10014278144855829 0.059835039312868626 -0.021720276399008327 -0.011906291326519701 0.04743995719884333 0.05083937899184821 -0.08850450956995562
-0.07078462455660671 -0.09322844694489492 0.1071152776710536 -0.12368835110221357 0.07255138541016547 -0.08887299835236352 0.027871888779239403 0.06298788460302923
0.0064386547777899854 0.03422258148199522 0.090760857283859 0.05504823406120741 -0.08303968444458301 0.07231945454949763 -0.11324702853585057 -0.041825039480058016
-0.06600017125680958 0.0026199183495693133 0.020975150755512 -0.06913861838809028 0.03158240690320166 -0.036397283086067315 0.08052934742796548 0.002502023134791937
0.04086991222957951 0.06142174029174229 -0.058750430329396544 -0.030475472432490172 0.07385607163048337 0.08047597024189879 -0.03175997359790022 -0.09942700925698253
0.06845317706892438 0.003542211282595944 -0.03721193413782479 -0.06126560889803946 0.05220132522631169 -0.06841330506692027 -0.11700382615174408 0.03384397524839089
0.0801171996942038 -0.04708397350238185 0.0977015541721613 -0.022159433806073943 0.057031255358739257 -0.10057724107007214 0.09569205348046375 -0.05597353029006115
0.08345265216751521 0.005786026378827725 -0.09781493639577951 0.04419271986980765 0.0864653516158923 -0.06860052567730895 0.07144738935688913 0.004313860679177994
-0.09760007786295537 -0.020593228693231515 0.061875119375780704 0.019461265717462622 -0.061424212809266174 -0.019973638747568925 -0.07478814183660372 -0.0807364029511555
-0.10177346139641402 -0.06993696775514 -0.00461842813212004 -0.07355009024602512 -0.04810771993528015 0.06783177713602889 0.05632559994077154 -0.024246101807872626
0.042020520702998956 0.05178076886862141 -0.025596071512062505 0.01545601158573941 -0.05090879430442348 0.06235267752893801 -0.0327804770382077 -0.04582187936978218
-0.07927467276376089 -0.0617179863523112 -0.0650952107663954 -0.0661001881552217 0.0034311830656722567 0.015561694348902394 -0.04197622352553101 -0.053793781584940456
-0.03148165117959832 -0.05537130972774976 -0.02728355011667823 -0.002439506694832674 -0.08623640878109276 0.013180996652001486 0.03769353373983785 0.02026258561966874
-0.06106194480049271 0.047833913905167835 0.025387287031261654 -0.010150282237919485 0.027103172644155057 0.07497135911872786 -0.06885853258187465 -0.02301376306457027
-0.028571893873786426 -0.02917797140455743 0.0040572574703432755 -0.048397713319332014 -0.037008439856287906 -0.023884232118378552 -0.0642532860466849 0.01742748512953924
0.03384501276144049 -0.05341102972572411 0.009299678716858256 -0.04586579216429706 0.04138982805744827 -0.06637137351894964 0.026898134977283654 -0.03144288825503253
0.030762997554543443 0.004710956006464486 0.03208687205203382 -0.022008960979757568 -0.073016244253739 -0.0010931583577292784 -0.055984189485049046 -0.07286971356072028
-0.06093171219781406 0.033660922730430316 0.0423607226057335 0.040698474291042196 0.07854909093970956 -0.05551989432679667 0.031527186117080705 -0.05635305765460198
0.0625474602765638 -0.03392794407664597 -0.0385452933646952 0.06383197932371477 -0.034924348566938275 -0.009929876271218541 -0.02547364874238291 0.008813919063585805
0.03605667937418114 0.03738216231337226 0.04892296793648983 -0.0023062881348229532 0.04301094682577189 -0.07698719754650149 -0.04111282732210095 0.042390039712194884
-0.05852088750612798 0.07028452771130915 -0.034930088669074745 0.018322218326458483 -0.07605900391693193 -0.061384562134473485 0.09957952925494071 0.08183646305400856
00000000: 9c62 5270 1363 a43f 9484 5642 e89a 9a3f
00000010: 11a8 d484 9dec b0bf 03e4 e7a1 7cae a73f
00000020: d538 4001 0b5d 95bf 5341 8f07 614c 913f
00000030: 596d 84ce c79b a1bf d9fb bf62 f374 8f3f
00000040: a7ee d0b4 b3be 833f d2d0 1562 26ae 7fbf
00000050: bbf6 8a48 344a 6f3f a118 5c62 96de 83bf
00000060: 624d 7f1c 392d b33f d134 71e9 6a3a a43f
00000070: eca0 bfe2 b1c2 9cbf 4771 746a fa68 8dbf
00000080: 60d7 bd9e fac8 7ebf 5aa9 563c 9287 95bf
00000090: 6cdc e648 a681 70bf e703 384b 4b72 b2bf
000000a0: a8d2 dbb4 eec7 77bf b61c fb41 a93e a03f
000000b0: 3006 f952 4d5a a43f 59cb 82ef ee18 ac3f
000000c0: 5d9b fdc3 feaf 83bf f6b5 f1c8 d50b 72bf
000000d0: 15b3 bffc 8025 a13f 5466 a208 603e a5bf
000000e0: 7d68 ff47 7c1c 823f c269 f19d ae1b 80bf
000000f0: 5485 20a9 7438 8abf d3a1 30c6 2849 acbf
00000100: 372d 9e61 ccde abbf 3d46 da44 fcb8 93bf
00000110: 590c ad39 51ec aebf aa7b 42b5 c891 9abf
00000120: 5d86 ba1a 49e7 86bf 7fdb c784 605f a7bf
00000130: aa41 26e9 c707 79bf e8a4 99c2 7820 ac3f
00000140: 7200 ead8 cf0a a33f 985f de60 c0b8 97bf
00000150: 32be 792c 4b89 ae3f 9fc3 b810 7a79 7d3f
00000160: 406e 5aa4 a96f 923f 8b8f 1c60 1637 8e3f
00000170: 3d07 b20b e164 b03f 8983 07ae 6aa8 90bf
00000180: 27e9 b50c 4b87 a43f 83e8 e7ff 8285 b33f
00000190: ef4a 2e82 3084 923f 6595 1c68 0df0 703f
000001a0: 510c 97b7 fa38 50bf 180e 3df0 87ef adbf
000001b0: a15f 52e3 5591 9fbf a519 18da e8ee 803f
000001c0: dab1 c35a 561d 903f f6f8 8386 dce5 ab3f
000001d0: 6844 5205 bf0d 953f feab 1ad8 8ad6 a53f
000001e0: 0ae0 0aec 0167 873f 84ba d798 5516 abbf
000001f0: c0a4 d281 ff0d a03f 76a1 ad5f 0275 7a3f
00000200: 8d7e 9a40 91df 953f 5f53 d46d 38fe 9fbf
00000210: 04c4 2c91 1a06 adbf 81f8 086a bfaf 793f
00000220: 5f16 d26a 6559 513f 4163 6596 5303 a53f
00000230: 984d 6cce 8a83 a8bf 0965 dd4a 95bc a03f
00000240: 0e79 b8ed 637d 9dbf 8b80 27d6 d1ce a13f
00000250: 8a02 1204 7703 a93f 6138 04f3 7b51 aabf
00000260: 20e4 ed0d 9820 513f 09c0 5929 6793 863f
00000270: 5723 9962 ea31 98bf 25d2 fe05 ca63 a63f
00000280: 0eb3 b881 955a 8dbf a8cc db1a adce 8fbf
00000290: 8e0a fa21 7bc1 acbf df76 3bc5 37b4 af3f
000002a0: 5e63 922c f5e8 93bf 65f8 145b e7e8 95bf
000002b0: 88e0 f6b6 8f6e bc3f fc0b 77ba 0b18 b23f
000002c0: f21c 2b4d 5a4a 763f 4285 4013 f5a2 b9bf
000002d0: c4dd 01c2 b2a2 ae3f 85df 2c13 d73d 96bf
000002e0: 5993 e95e 5362 88bf e3a5 62d1 0c4a a83f
000002f0: 61e5 3c7c 9e07 aa3f 4ac7 2646 3ba8 b6bf
00000300: 67bf 87ef f01e b2bf ed68 afca d1dd b7bf
00000310: 43c7 7f26 e86b bb3f 0253 e12e 0aaa bfbf
00000320: 27bc 9d43 ba92 b23f b1bd 6b7d 61c0 b6bf
00000330: 9f69 23cb 728a 9c3f 240b 6a58 f91f b03f
00000340: 3ea6 363b 6b5f 7a3f 44ee 7f48 9f85 a13f
00000350: 6385 ca81 1a3c b73f 31aa fd39 482f ac3f
00000360: 3aab f5b8 1642 b5bf 3197 271c 8783 b23f
00000370: 893f eedb c1fd bcbf 3207 7171 176a a5bf
00000380: c911 1421 63e5 b0bf f89a 25f4 5d76 653f
00000390: f528 188a 827a 953f a512 de88 11b3 b1bf
000003a0: 4c72 8eb9 912b a03f e72b 0929 aaa2 a2bf
000003b0: e942 9241 929d b43f a862 3571 1f7f 643f
000003c0: e536 d5b0 e6ec a43f 3f04 a29b ab72 af3f
000003d0: d207 c851 8914 aebf a4f5 b555 f634 9fbf
000003e0: d992 4344 3be8 b23f e885 4dbc 129a b43f
000003f0: 0780 d9df d742 a0bf 560b 1969 0c74 b9bf
00000400: e77d d1bc 2586 b13f 521d a833 8e04 6d3f
00000410: 6525 4950 710d a3bf a257 2cb5 345e afbf
00000420: ed4a 4fd1 21ba aa3f 63aa dfcb 8883 b1bf
00000430: cf1f d476 f6f3 bdbf b089 b75d ff53 a13f
00000440: fea0 8890 8f82 b43f 2788 b7fc 631b a8bf
00000450: ff13 f013 f802 b93f f2d7 fa6d f6b0 96bf
00000460: 3731 3b61 3333 ad3f 972c 1e19 6ebf b9bf
00000470: 6288 2f40 467f b83f 5230 1304 90a8 acbf
00000480: d2ed d22b 275d b53f 673c 22a1 16b3 773f
00000490: 5654 e150 660a b9bf 4ecd 1f9d 6da0 a63f
000004a0: f869 6de1 9722 b63f 4cbf 45d6 cd8f b1bf
000004b0: 8a23 ac48 604a b23f 40ca 9528 69ab 713f
000004c0: 9329 8296 51fc b8bf 37a2 062f 6416 95bf
000004d0: de65 4f7c 18ae af3f b85a 2e6f a7ed 933f
000004e0: 268d 6592 fe72 afbf 14cc cf34 f873 94bf
000004f0: 451b 51cf 5025 b3bf a29a 4512 24ab b4bf
00000500: 7c5e 4c58 d30d babf ee2b 4a9d 63e7 b1bf
00000510: 3a05 95dc c5ea 72bf 917a 39c0 2dd4 b2bf
00000520: 7c43 9d37 93a1 a8bf 24c6 6d60 6c5d b13f
00000530: cbac 5883 b5d6 ac3f 91fc 4759 f8d3 98bf
00000540: 8a4c 5cb4 b683 a53f 2576 b449 0283 aa3f
00000550: 5198 3348 db35 9abf 0a7d 4cc2 66a7 8f3f
00000560: 5a8a 3bad b710 aabf bd11 9cad b0ec af3f
00000570: 6a1b a749 9ac8 a0bf db3f ab22 f775 a7bf
00000580: 79e4 eb4e 584b b4bf c292 eaf9 7f99 afbf
00000590: 642e 5e69 14aa b0bf 02d9 6222 f1eb b0bf
000005a0: 1083 b761 b61b 6c3f 301d 6442 cfde 8f3f
000005b0: 43e4 8056 e87d a5bf 765e 45c9 db8a abbf
000005c0: de1c 7bec 5c1e a0bf c4b1 d5d8 a059 acbf
000005d0: 1530 e10d 38f0 9bbf 8630 202f 04fc 63bf
000005e0: b274 70db 9613 b6bf d36a 646c a3fe 8a3f
000005f0: 5fd6 5d1d 914c a33f ba87 461a b7bf 943f
00000600: 1884 e5df 8243 afbf 4889 b9cf af7d a83f
00000610: 743c 22fe 1fff 993f c767 0ed2 abc9 84bf
00000620: bc79 7f20 efc0 9b3f 2736 8daf 5231 b33f
00000630: 1d5d 7d79 b6a0 b1bf e381 e17e eb90 97bf
00000640: 7a3d 1757 f341 9dbf f5e7 c883 d4e0 9dbf
00000650: 2360 58c2 579e 703f f8bf d0c7 95c7 a8bf
00000660: b4ac b72d c5f2 a2bf 05a2 5aaf 1b75 98bf
00000670: c025 3b42 e772 b0bf 7249 bbba 82d8 913f
00000680: a2dc e22d 2254 a13f b3d8 d5c3 b058 abbf
00000690: 1622 9ebf b50b 833f 9b9a b39a b87b a7bf
000006a0: 9ea0 c92b 0c31 a53f 9a8c a7de b6fd b0bf
000006b0: fe0b 3448 2f8b 9b3f 158a 7e41 4819 a0bf
000006c0: 55dc b1d1 5580 9f3f 42c8 b09f cb4b 733f
000006d0: 0958 30c4 b06d a03f fe0b 825e 8489 96bf
000006e0: c184 254d 31b1 b2bf 16ba 54d9 09e9 51bf
000006f0: 44da dcad f5a9 acbf eab7 9cec 96a7 b2bf
00000700: 3798 5bfe 7032 afbf 218e 8f24 013c a13f
00000710: cbfe 73fc 4db0 a53f ab7c 2730 6ed6 a43f
00000720: f371 b710 cb1b b43f 5a6a d284 1a6d acbf
00000730: 9e93 9dd2 5424 a03f b2ee 4fd7 4eda acbf
00000740: 7af0 5540 1c03 b03f ba9c 75e4 005f a1bf
00000750: f809 d56c 35bc a3bf b161 a2e7 4a57 b03f
00000760: 91b3 dbad 9ae1 a1bf 7aa7 b46e 1d56 84bf
00000770: a586 08a1 c315 9abf 5f83 0531 080d 823f
00000780: 74ce 6d65 0576 a23f d7ec 2d39 c123 a33f
00000790: 4af7 9e66 6e0c a93f 4cab a703 a3e4 62bf
000007a0: d02e f9e3 8705 a63f 2e44 acd7 6eb5 b3bf
000007b0: 2ccb 9691 bd0c a5bf ade3 7ab4 25b4 a53f
000007c0: 9684 f123 73f6 adbf 3354 efb3 2afe b13f
000007d0: edc9 f548 5be2 a1bf d35d 0242 0fc3 923f
000007e0: 1cba 6356 9a78 b3bf 7b95 b11d cc6d afbf
000007f0: 8644 8045 0b7e b93f 85f1 6f04 3cf3 b43f
